assignment1/results/w1_LR_2.00.npy (npy, 20688 bytes, 1 tensors)

array f8 [257, 10]
000000 c4 b0 7c 47 37 8e 01 c0 eb e1 b1 d9 61 06 db bf
       -2.194441374294998 -0.4222645402838043
000010 94 87 f6 09 f1 fe f6 3f da e8 f8 6d 77 22 ea 3f
       1.4372415913753445 0.816707339086203
000020 a0 49 7e b2 6c 4b c2 3f 7c 12 ff 21 c5 da ba 3f
       0.14292677608007143 0.10490066604604381
000030 83 3f 88 31 79 4e f2 bf a6 93 50 33 db 64 ec 3f
       -1.1441585478641805 0.8873115541688221
000040 d0 5a 2b bf ee f7 d5 bf 43 48 d0 cc 00 5d d2 3f
       -0.34325760525591154 0.2869264602787817
000050 2e c6 3c eb e8 13 e5 3f b8 6c 71 75 29 58 df bf
       0.6586804003220033 -0.489755978289121
000060 de 3f 3a 01 4f 19 ef 3f 5e ed 6b cf a3 86 ee 3f
       0.971839430234464 0.9539355326846068
000070 e6 f3 81 3c 34 9f e9 bf 37 5c 5f a2 1c e0 f5 3f
       -0.8006840879239661 1.3672148077655615
000080 32 ef 1f b3 6f 72 00 c0 b7 9a 45 e7 e3 5b d0 3f
       -2.055877112781581 0.25560853562493996
000090 49 a3 e7 7e 34 ff eb 3f 1e 49 0d 49 73 1a e1 3f
       0.8749029615984024 0.5344788004679548
0000a0 94 7c 9d 0f 59 b3 d4 bf bc 8b fd d5 5f 43 fb bf
       -0.3234465267650617 -1.7039488181114697
0000b0 c0 79 26 0d 1b d1 e0 bf 52 73 34 d4 da 02 e7 bf
       -0.5255255944101052 -0.7190984863878873
0000c0 3e 55 46 df 55 5d e5 bf 46 7c b0 ca 70 bf 00 c0
       -0.6676434861025553 -2.093476851950558
0000d0 98 2e 9e 29 57 e7 e9 bf 58 94 cb 84 66 0b f5 3f
       -0.8094898045396404 1.315283316356064
0000e0 fa d9 a5 a6 51 62 ed bf 6b 98 e8 73 6d c5 f5 3f
       -0.9182518248406375 1.360700085418581
0000f0 b8 7e db 7f 52 7d c4 3f be bf 7c eb cf 54 e5 3f
       0.16007453196561072 0.6666030501710265
000100 4a da fe cc 37 2e ed 3f 30 29 d1 95 45 f1 f4 3f
       0.911891842252609 1.308904252264778
000110 e5 5c 11 e1 51 4a db bf 06 57 ff 50 d1 da ef bf
       -0.42641112307815227 -0.9954611379605189
000120 eb b1 7f a6 ba dc f2 bf 99 2d fa c1 5d f0 cb 3f
       -1.1788889411792478 0.21827289554162801
000130 c3 64 b8 98 51 77 07 40 dc ac af 5e 8b 7a f4 bf
       2.9332611018440686 -1.2799180697136796
000140 50 19 a2 28 d8 67 de bf 2f 15 e5 c0 93 6d 06 40
       -0.4750881573494512 2.8035044736776835
000150 7c 11 1d 75 e2 ea b2 3f 48 fb bd 3d 61 61 b3 bf
       0.07389655455796701 -0.0757046485650622
000160 3e 1d f1 77 18 70 eb 3f dd 21 d1 0e ac 4b f1 bf
       0.8574335425009065 -1.0809746340547612
000170 80 21 be 46 71 d3 84 3f 94 21 78 39 db bb 00 40
       0.010168919536014398 2.091726731279957
000180 a2 83 9a 8c f6 2b d0 bf 34 19 20 d1 cb 7a b0 bf
       -0.2526832936364888 -0.0643737206993123
000190 d2 50 d1 f5 e1 aa f1 bf 90 34 b4 30 88 de bb 3f
       -1.104219398713259 0.10886431874333113
0001a0 da fc 69 b6 c9 f6 df bf b6 4c 06 9b 7a 62 ee bf
       -0.499437740458189 -0.9495213535141349
0001b0 68 4e cd be 72 d2 f3 3f 60 06 3c 34 97 49 92 3f
       1.2388789609148265 0.017858851016177346
0001c0 0c 10 2d 0b 93 64 c9 bf 1d 58 67 87 b7 6d c2 3f
       -0.19838178678230667 0.14397329436786857
0001d0 a0 d5 22 22 68 cc f0 3f aa 9a f0 55 00 c5 c3 bf
       1.0499039967956847 -0.15444950290949083
0001e0 00 56 b0 c8 0e 59 54 3f 07 66 fa 70 9a a6 d0 bf
       0.0012419361471577295 -0.2601686576177546
0001f0 b4 14 84 c1 e3 40 e7 3f 8c 70 8d 57 82 39 c8 bf
       0.7266711024864407 -0.1892550399305758
000200 12 1c 36 14 8e 10 e2 3f 20 49 43 31 6c aa f9 3f
       0.5645208735230673 1.6041070865945315
000210 0f 5b b2 84 7f d2 f2 bf 07 1d ea a1 f7 83 f3 bf
       -1.17639114222192 -1.2197185826096886
000220 58 85 23 da ba 9d f2 bf 08 80 be 45 10 63 f3 bf
       -1.1635082741780334 -1.2116854404812347
000230 ff 6f b9 78 0d 48 fc 3f 78 2e fb 75 a6 91 d4 bf
       1.7675909724994197 -0.32138978501891513
000240 da c0 00 3d a9 8e e3 bf 58 24 aa 35 3b fc c1 bf
       -0.6111646834815716 -0.14050998802511816
000250 d6 24 51 36 9d 74 ef bf e4 06 db b4 d1 d2 f3 3f
       -0.9829851208570755 1.2389695229216438
000260 1e 11 db 20 17 1e ec bf d4 e3 5c 61 08 dd e9 3f
       -0.8786731378282047 0.8082315351122085
000270 b8 52 b0 72 e3 e5 e8 bf 28 25 d6 05 8d 05 ba bf
       -0.7780625572218787 -0.10164719955914292
000280 1c d9 b6 03 e9 e3 c3 bf bf d0 0f 77 54 09 ed bf
       -0.15539276772842292 -0.9073889089036341
000290 72 5c e0 aa ae 45 e9 3f 84 34 6e 71 63 ea ed bf
       0.7897561395101447 -0.9348618712844119
0002a0 cc 87 e4 ba ef 2c e3 bf 74 54 1d 1e 33 05 e4 bf
       -0.5992354059455862 -0.6256347263503259
0002b0 fc b7 bd 9b 0e 11 fc bf b7 d2 cc e3 9e a6 f9 3f
       -1.7541643222461962 1.6031788729134584
0002c0 9c fb a2 0c e3 39 cf 3f 66 6c 20 f2 0f 91 e0 3f
       0.24395406834625255 0.5177077988659107
0002d0 5a 70 0a e4 bc bc f1 3f ee 43 c0 60 03 2f f1 bf
       1.108578577789578 -1.073977830823647
0002e0 74 22 be 57 e3 6c e8 3f 92 bf 3a 67 13 7b ea 3f
       0.7632919992184513 0.8275239006234065
0002f0 18 54 b2 f2 be 8f a0 bf 12 7e 91 a6 af ab fe bf
       -0.0323466941128247 -1.9169155603957546
000300 52 25 61 fd 26 72 ff bf a0 f9 46 2e 95 57 f2 bf
       -1.9653692147861261 -1.1463825042443219
000310 f2 50 39 f5 c9 5e ea bf 20 3e eb 72 08 9f f6 bf
       -0.8240709104088906 -1.4138264168758568
000320 dc 49 26 50 18 6e d7 bf b8 99 25 21 ea 70 d8 bf
       -0.3660946638784972 -0.3818917583179444
000330 27 04 02 7a 46 2f 04 40 2e 4c 64 1d 06 4e ad bf
       2.5230836421838094 -0.05723590000902622
000340 28 72 91 c3 77 f4 d6 3f 32 93 d9 3d 02 6b d3 bf
       0.3586711320729443 -0.3034062961581184
000350 07 75 be 21 a6 f6 d2 bf 2e 0d be 5a 4d 01 db bf
       -0.29630425734815485 -0.4219544778972758
000360 f3 19 c9 5a ef be f5 3f 58 41 43 7c fd e7 ef 3f
       1.359114985114158 0.9970691134458702
000370 71 fa 04 51 ff 3a 07 c0 40 bb 08 7f 1c d5 82 3f
       -2.9038072900432828 0.009195540072224895
000380 d9 ec 9f 4c f9 be 04 40 00 98 f7 c2 e2 18 88 3f
       2.593248938208131 0.011766215872693664
000390 b3 96 c0 e4 5c fd e5 3f fc d9 34 e6 0a e2 fc bf
       0.6871780841654157 -1.8051861755790233
0003a0 dc 02 ed 14 7b 5b d3 bf 50 7d 80 d7 2e 70 cf 3f
       -0.3024585441926726 0.24561105272821715
0003b0 58 70 ab 4b df 0c ef bf 05 ef f0 19 35 ff f5 bf
       -0.9703213193820472 -1.3748065007520733
0003c0 c6 22 22 82 bd 1e e0 3f d8 f1 f7 55 6d 0c e3 bf
       0.5037524739901407 -0.595266979129117
0003d0 f6 38 bc 64 ad 07 f8 3f 00 c0 aa 50 91 8b f0 bf
       1.501874345299766 -1.0340741301588423
0003e0 ce e1 82 cd bd 88 f5 bf 16 cd 70 09 05 1c bf 3f
       -1.3458841350348965 0.12152129631504169
0003f0 66 e8 ac ff 37 98 e1 bf f3 58 7f a8 e0 a8 d0 bf
       -0.5498313897762841 -0.26030746893719864
000400 b6 b6 45 17 4d 54 f4 3f 4f 9d bf 7d 27 39 c8 bf
       1.2705813321185082 -0.18924420967162311
000410 c0 f4 04 aa 31 7b e9 bf 66 59 c7 ee 27 0a e7 3f
       -0.7962883301439874 0.7199897445341719
000420 20 fe 60 a2 c4 0e df bf 2f 68 b6 03 18 30 ea 3f
       -0.4852763734561183 0.8183708260069177
000430 35 f3 01 57 77 f5 e6 3f 7f 7f f0 ef 94 c1 e9 3f
       0.7174641322486425 0.8048805891339582
000440 a2 d8 62 6e bc 11 ff bf 99 22 b1 f4 43 f1 d4 bf
       -1.941830092616819 -0.3272256745881719
000450 5d 62 15 c8 32 2e eb bf f3 7a 56 48 74 ed e7 3f
       -0.8493894489175308 0.7477361119125291
000460 0d a8 ca 69 10 22 fc 3f 61 51 94 f0 10 4d fb bf
       1.7583164341435833 -1.7063149831420434
000470 aa 7a 5a 60 b7 40 ee bf 4a 58 f0 d0 81 74 f6 bf
       -0.945399940672208 -1.4034441148446768
000480 62 10 47 39 dc db db 3f 99 4d 64 6a ac 24 0a c0
       0.4352942046500684 -3.267906981645592
000490 75 3f 3e 1b 8d 8b e7 bf 60 ea f9 22 2d 7b ad 3f
       -0.7357850582211386 0.05758038570362056
0004a0 6d d5 32 e1 43 ea d8 bf 47 07 61 1c 1a b2 ec 3f
       -0.389298410339811 0.8967409662511522
0004b0 b7 a1 0b 51 3c d5 f0 bf 2d 98 61 41 c7 14 ec bf
       -1.052059475501762 -0.8775364186265101
0004c0 5e f8 51 99 9f 13 f2 bf af 16 2b 71 c2 29 f6 3f
       -1.1297908772535474 1.3851952000272083
0004d0 c8 25 dd cf 1f 2e d3 3f c0 5f a8 20 c1 60 c9 3f
       0.2996902017517553 0.19826521010031506
0004e0 5b 46 11 d9 18 e7 e6 3f 01 62 3f f2 38 0a e9 bf
       0.7157100905989852 -0.7824978572271563
0004f0 c8 db 5c 62 20 f5 ec 3f 83 2f 87 23 f4 e3 01 40
       0.9049226685664218 2.2363055015211457
000500 7c 17 1e d6 b5 61 93 bf 98 b2 fb 0e eb cb c4 3f
       -0.018927422708223215 0.16247308951951278
000510 d6 dd 14 83 47 8d f8 3f 77 6e 16 6d ec a9 e3 3f
       1.5344920273181422 0.6144926195733679
000520 6e f1 13 88 2e 86 f1 bf 55 86 80 fe b8 99 e3 3f
       -1.0952592196982454 0.6125149698966178
000530 ca 20 74 e7 77 9f f2 bf 29 8a 6c cd b6 d5 e3 3f
       -1.1639327088505973 0.6198381435572787
000540 0d d9 40 c8 cf b6 f1 3f b4 24 9a 20 4d a8 fb 3f
       1.1071317503352163 1.728589179374734
000550 14 6b c9 a3 cb ba da 3f eb 9e b6 fc 86 bc e2 bf
       0.4176510905723927 -0.5855135856445178
000560 f4 e6 44 af e6 2c f6 3f d3 f8 c9 82 4f 9f f5 3f
       1.385962185521234 1.3513941868728139
000570 64 a5 48 06 e5 42 dc bf 5c 57 c1 68 36 8e df 3f
       -0.4415829240193345 0.4930549643516906
000580 8c 4f 8a 5e 4c 78 e0 bf c5 33 a6 cc 33 66 f1 3f
       -0.5146848532190105 1.0874517435179183
000590 c7 29 fd 36 78 70 fb bf 86 5d e9 7f a2 84 d8 bf
       -1.7149583957676542 -0.38309538356175954
0005a0 a4 4a 53 67 74 f0 ef bf d7 99 97 88 cf db f7 3f
       -0.9981023805688278 1.4911647163040607
0005b0 db bd bc f8 99 f6 ea bf 93 a6 b2 db 71 0f e9 3f
       -0.8426027162694781 0.7831353465055194
0005c0 36 95 b7 ac bd f2 f3 bf a8 97 af 10 66 7f db 3f
       -1.2467629191172143 0.429650799078781
0005d0 99 aa c5 cd 5b f1 f0 3f 19 3a 09 60 09 43 fc 3f
       1.0589254415487288 1.766366362705986
0005e0 cc f7 eb 5f 9a 66 f6 bf 18 e1 e1 45 db 1e b4 bf
       -1.4000495669310906 -0.07859583335983122
0005f0 58 21 a5 0d 66 02 ed 3f 65 a9 ca 4d 61 94 e5 3f
       0.9065428034310044 0.6743628043525801
000600 32 00 26 32 fd 6b c1 bf 64 32 64 d9 8c 9d e7 bf
       -0.1361080641618187 -0.7379822011876738
000610 21 41 91 0d 15 06 e2 bf 38 32 a6 f4 ca 9b 03 40
       -0.5632424607265741 2.451070700952439
000620 a1 1c bc de a0 12 fa 3f 2d 95 a4 79 9f a3 04 c0
       1.6295479488924587 -2.579894018492857
000630 2a 3c c0 ea 65 7f fb bf 9d f1 2c 96 d8 1e f4 bf
       -1.7186030549962745 -1.257530771849907
000640 52 19 15 db f5 80 e6 bf 34 bd ed 22 20 7d e9 3f
       -0.7032422331765622 0.796524112911277
000650 77 d3 6c 31 c3 73 f7 bf f5 98 ca 9f 8d 2e e6 3f
       -1.465762322489551 0.6931827660489761
000660 10 2d 86 64 6c 7f e3 bf c2 97 d8 d6 78 00 f6 3f
       -0.6093046153413599 1.3751152412819327
000670 12 7f 56 70 f2 59 e7 bf b5 43 b4 01 32 e7 f4 3f
       -0.7297298616503858 1.306444174439304
000680 c4 d3 d3 f2 c2 fd e3 bf 97 01 50 8c ef ce f6 3f
       -0.6247267477725633 1.4255214196165065
000690 33 83 fa f1 fa 1d e9 bf f5 6f ea c9 e6 63 01 40
       -0.7849096990722501 2.1737800383252712
0006a0 f2 dc 63 fd eb 94 d0 bf e8 58 39 d0 1b fb e0 3f
       -0.25908946747899997 0.530652910888219
0006b0 b2 c0 35 77 f1 4a e1 bf 58 80 e4 5f 83 53 e1 bf
       -0.5403983429260022 -0.5414444802190799
0006c0 5d 4d 7c 93 1a 14 f6 3f fb a5 fe 5f 1a 07 f3 bf
       1.3799081574587355 -1.1892341375154263
0006d0 a1 e3 36 bd 62 59 fc bf 37 f8 fa f9 41 a8 e3 3f
       -1.7718226805866168 0.6142892725399695
0006e0 54 dc 5d 1e 8c 52 f2 3f a7 39 53 d7 75 b7 f8 bf
       1.1451531587788581 -1.5447901164185198
0006f0 63 b8 0d ba 10 78 ec bf d0 96 a1 d2 c8 be f1 3f
       -0.889656413446357 1.109078238275675
000700 e7 4a 49 47 99 5e 03 c0 20 11 d6 76 b5 db db 3f
       -2.4211907929651377 0.435284963656402
000710 08 e0 a5 d8 af 36 db 3f dc 6f b3 88 67 a9 06 c0
       0.42521282345796907 -2.8327170066604435
000720 99 3f 11 2e 8a fe f5 bf be c7 33 86 bf cc f3 bf
       -1.3746434974200155 -1.2374873392368353
000730 ec 1e 90 41 36 8a de 3f 2a 43 36 e9 7d 5d fb bf
       0.4771857872260472 -1.7103251561968116
000740 8c b7 e5 ef 6b 2c f0 bf b6 21 36 01 64 82 e4 bf
       -1.0108451243390588 -0.6409168265973253
000750 90 0b 26 89 34 fc a7 bf 9a ae 7b f2 44 1d e0 bf
       -0.04684604810883919 -0.5035729156492892
000760 83 a3 c7 a1 89 75 ec bf 71 ef 92 42 b6 07 fa 3f
       -0.8893478545916057 1.626882801107936
000770 c6 15 cd 98 c1 99 f2 3f 20 8a e3 a5 7c 36 b2 bf
       1.162538143996572 -0.07114390420932937
000780 84 f6 28 a1 82 e0 e3 3f 0e 10 97 15 a6 f2 df 3f
       0.6211560390144801 0.4991851054039679
000790 d0 3f b4 df ed 08 b5 3f 20 4e 2a 59 71 28 d6 3f
       0.08216749869848106 0.34621843059105295
0007a0 5e f6 a8 29 0f 27 e0 3f 50 02 cc 93 2d 83 f0 bf
       0.5047679723426872 -1.0320258878056343
0007b0 00 43 b6 58 99 80 fe bf f4 66 50 d4 39 d2 b9 3f
       -1.9063962426482135 0.10086404260109899
0007c0 62 1c df d5 bb 56 f5 3f e2 2b fc e2 64 7c fb bf
       1.333675227580692 -1.7178696505168252
0007d0 30 b1 26 e0 df f0 b0 bf 19 09 38 66 9f ef e5 3f
       -0.06617545340003939 0.6855008121931717
0007e0 3a 30 a0 c2 94 7d e6 3f 38 94 61 f1 24 ac cc 3f
       0.7028297234805969 0.2240034273737892
0007f0 d5 fd 93 5d 40 17 e2 3f a4 84 1c 33 03 88 c3 3f
       0.565338309068404 0.15258827205346848
