assignment1/results/w1_LR_5.00.npy (npy, 20688 bytes, 1 tensors)

array f8 [257, 10]
0	0xbfe157c1187733eb	-0.5419621923298313
1	0x3fe1a07c914e1344	0.5508406484592361
2	0xbfc2f646fa77e366	-0.14814078550241588
3	0xbfebd46594cf6887	-0.8696773439835547
4	0x40012f597fd95e23	2.1481199253282894
5	0x3fed2316c1ff1cf6	0.9105333127016866
6	0xbfe1e34dcb8222ce	-0.5589970564625106
7	0xbfc40e1a4b03ee6d	-0.15668038046702595
8	0x3ff03741948d4a68	1.0134902766045801
9	0x3fe0ac10ff69c096	0.5210041988884935
10	0xbfeb0fa66efba132	-0.8456604163775749
11	0xbff089f643523184	-1.0336821202973576
12	0xbfe8e8622257d1e0	-0.7783671065104123
13	0x3fff279951afe3dc	1.9471677008534618
14	0x3ff54c8e89cf5732	1.3311906226349035
15	0xbfd02d1c3808daa4	-0.2527533099377399
16	0xbfd370be7185c972	-0.3037563427561941
17	0xbfe96aaa8026cfb5	-0.7942707541428634
18	0xbfc5b0b80b7d6f8d	-0.1694555336097178
19	0x3fe3f5affd0fd3e7	0.6237411444295703
20	0x3fb2295f90dd5680	0.07094380652173449
21	0xbff9aae12dc96242	-1.604218653539775
22	0x3fde57d37a8333d8	0.4741104790126065
23	0x3ff5feb78226e17a	1.3746867260034308
24	0x3fd6015e2cd74de8	0.3438334882641514
25	0xbfceaef1f85a1220	-0.23971390368036882
26	0x3fe01bbb31ef622a	0.5033851599974402
27	0xbff649922ccffd01	-1.3929616690145965
28	0xbff8b262a0a56f53	-1.5435510897868496
29	0xbfee157b75f68a7e	-0.9401223472562632
30	0x3fb4810c24e4eab6	0.08009410763490163
31	0xbf9ae6218bdf3d40	-0.026268505251036744
32	0x3ff40c6827c014bb	1.253029017710374
33	0x3fb6052fdc97eeb0	0.08601664672454024
34	0xbff909890a766fe8	-1.5648279579827378
35	0x3ff2f9754e944fdb	1.1859028882508855
36	0x3fe2dd40dcc12e9e	0.5895084678281426
37	0xbff8dee223b36ebd	-1.5544148821417558
38	0x3feb095b63f0ea1a	0.8448922111486497
39	0xbff54b0cac3d45bc	-1.330822632608359
40	0xbf98a4f4a2d1bf40	-0.02406675571222583
41	0x3fe7848991c56aa8	0.7349288794606155
42	0xbfd6661ca51cdc4e	-0.3499824154309338
43	0x3ff6e977d27cca6a	1.4319990369955584
44	0xbfd5c660ca3ba8d3	-0.3402330374652937
45	0xbffd8719a3ee123c	-1.8454834369196211
46	0xbfedf3f21e97b15d	-0.9360285375128502
47	0x3fbb896419398a20	0.10756517043913805
48	0xbfcde4b0e5cf0800	-0.23354159566048338
49	0xbff5e0bcacb775f6	-1.3673674341911215
50	0x3ff0c72f4c4ae69a	1.0486290912798837
51	0x40017d43951405de	2.186164059327651
52	0x3fe5a371710c6b3d	0.6762015541056382
53	0xbff2bd6afaed7b03	-1.17124460238091
54	0xbfbc34565ddfc42c	-0.1101736048874648
55	0x3fe49a12bfa7a9e8	0.6438077681789851
56	0xbfff040dd9b501b1	-1.9384897712881008
57	0x3feaa8a612341fd6	0.833087001375129
58	0x3fcf20990ae8c256	0.24318230660130052
59	0xbff4744fe46552d8	-1.2783965036116367
60	0xbff7740b2cc37af9	-1.4658309696748673
61	0x3ff6439897a71b1c	1.3915029453216397
62	0xbfdb3365d6b4b55a	-0.42501207320568357
63	0xc00683e347982277	-2.8143983453085712
64	0x3fb81ce50ea2aa80	0.09419089896497645
65	0x3fe1ba8ef02bc11c	0.5540232363546553
66	0xbfd5f2f040268048	-0.34295278801619533
67	0xbfe19a36ba8ac175	-0.5500749247931213
68	0xbff3416cc959286f	-1.2034728875319407
69	0xc0051da3020e6140	-2.6394710693968193
70	0x4007236a990e83b4	2.892293163066336
71	0xbff495959b40078f	-1.286519628949893
72	0x4000ebe24dffb4cc	2.1151777356777526
73	0xc0065dc1cffa4672	-2.7957798240902827
74	0xbff8c869dec33741	-1.5489290906584332
75	0x3fd808564bf6a406	0.37550885599426953
76	0x3ffc929569c1ee70	1.7857870227006991
77	0x3fec96657e683418	0.8933589428794475
78	0xbff0ad3ff1b1123e	-1.0422973099786215
79	0xbff50f853bb54a54	-1.3162891704893314
80	0x3ffcae6c8fbc1fd6	1.7925840010302543
81	0x3fb94cbbf798a6e8	0.09882712168532815
82	0x3fec2df72c17e214	0.8806110249707353
83	0xbff2a6662c848954	-1.1656247843717056
84	0xbfb5f4d7a75cfec8	-0.08576724849717288
85	0x3fec09443153d6d0	0.87613114961888
86	0x3ff7c0e9baf6d997	1.4845979026118579
87	0x3fba4fe6fd218394	0.10278171234086947
88	0x3feae5843e3a1a21	0.8405171599741302
89	0xbff337359b3e35b7	-1.2009788574390379
90	0x3fea3f3e3a102a1c	0.8202201017423394
91	0x3fd1711ea5c4f385	0.2725292795983523
92	0xbfc2e372b9d6f3dd	-0.14756616663171843
93	0xbf99d81b87c7c000	-0.02523844734417935
94	0xbfe7e62208d5b4ca	-0.7468424007944574
95	0xbff355adc52f8cad	-1.2084176733558636
96	0x3fe8a0b24de7a9ec	0.7696162721234123
97	0xbff23da244c5b94d	-1.1400473295612585
98	0x3fea20c8ad8dea67	0.8165019407018236
99	0xc0014a9157ef61a4	-2.1614100332191857
100	0xbfd8a0b382f982c8	-0.3848084239053091
101	0x3ff0cff651feb1a7	1.050772018711635
102	0xbfe4d57cb80adcc9	-0.6510604471758593
103	0x3fcdfc9c82148030	0.2342715869099279
104	0xbfed759b84e72d6d	-0.9206063838732185
105	0xbfd331bc288e20f4	-0.29991058311908536
106	0xbfd3c3af99b57a5c	-0.3088187218726597
107	0xbff4360f5436bbfe	-1.2631982125856207
108	0x3fcdfa6eac6e8b80	0.23420508784792204
109	0xbfe8fd40993d1b94	-0.7809145920699501
110	0xbfd1a65ecc9994e4	-0.2757794378324674
111	0x3ffad5ed7f7b69f6	1.677228448845765
112	0xbff56031703e41a7	-1.335984648179968
113	0x40027835bb530fd0	2.3086962351535263
114	0xbfec57fd9741d94d	-0.8857410387270562
115	0xbff2c6e6e452f821	-1.173560039416323
116	0x3feea1008d261366	0.9571535832225038
117	0xbff705940e4e2d49	-1.4388619002155159
118	0xbfe52b57b462ea0e	-0.6615408442660866
119	0x3ff05c39c6209830	1.0225160350178264
120	0xbfe325bf837990bf	-0.5983579223507361
121	0x3ff1abebe5be4833	1.1044730161998018
122	0xbff11f333f1d634d	-1.0701172318860757
123	0xbfd7dbf25a973012	-0.3727994808839422
124	0xbff056a59ace9480	-1.0211540267130488
125	0xbff8c5c536bd780a	-1.5482837808881436
126	0x3fe26e7a56a673b8	0.5759860699068815
127	0xbfde5431f80aa11e	-0.4738888666420439
128	0x3ff035664b77ae7a	1.0130370090436416
129	0x3fd46342c68e6218	0.31855840101482746
130	0x3fdae80ab73f9b7c	0.4204127110992244
131	0x3ff2ba2762a7655e	1.170447717062721
132	0xbfebedb1d18baa94	-0.8727654545485444
133	0xbfd6ec57cbcf82c0	-0.35817522910478417
134	0xbffa82a2ef068d8e	-1.656893666928997
135	0x3fb1213df4c09200	0.06691348290821253
136	0xbfc4ab40508bd0e8	-0.16147617276113313
137	0x3ff509ef466de87a	1.3149254561563155
138	0xbff552087287dc12	-1.3325275873046434
139	0xbfeaf7572685a4f4	-0.84269292377317
140	0xbfe3324c136907cf	-0.5998897914034788
141	0xbfe3943548b4135a	-0.6118418140400579
142	0x3ff6460385390fc3	1.392093201066914
143	0xbfc571a124495f84	-0.16753019592101392
144	0xbffb9ab4ac07a8a4	-1.725269958488334
145	0x3ffc2ea6ae0fdd99	1.7613894271179105
146	0xbfd75e2261c1bed8	-0.36512050196232115
147	0xbfe3152258e18ab8	-0.5963298545796851
148	0x3fe6f3bd5cfb966d	0.7172533813542948
149	0x3fee3861b062fda9	0.9443825192501453
150	0xbff349203bafaaa6	-1.205353005551538
151	0xbffc23b6dd95a79f	-1.7587193160675054
152	0xbfea7d36a422d644	-0.8277848439963198
153	0xbfe4f2b1aeb5018a	-0.65462574121925
154	0x3ffaaffb8ff57e2a	1.6679645179173215
155	0xbfd901322766dade	-0.3906979927809696
156	0xbfe33a61a803c670	-0.6008766442811986
157	0xbff408d26a430dc6	-1.2521537924629782
158	0x3fe3cd328d8fd08e	0.6187985195997656
159	0xbffd8326336ad7fb	-1.8445188530436087
160	0x3fe349508f7872cd	0.6026995470197903
161	0xbfe6af0199f203cd	-0.7088630682702558
162	0x3fb7652d381d27a4	0.09138758296935962
163	0x3fd1802b905e2d40	0.27344788645196516
164	0xbfd14777c0528c97	-0.2699870470189096
165	0xbfb3ccdd601b0718	-0.07734473797156871
166	0x3ff31037571feb2b	1.1914590266521354
167	0xbfea8574986eaa7b	-0.8287909486001149
168	0xbfd8b2997938be57	-0.3859008487515658
169	0xbff56eadb4e00d66	-1.3395211282193826
170	0x3fcb13e151c73966	0.21154419415547493
171	0x3fca834c69532faa	0.20713191168613082
172	0xbfe668cc25b8c2f6	-0.7002926575424613
173	0xbfeb857f156f41ca	-0.8600459498066411
174	0xbfc673b62e2b2304	-0.1754062390739578
175	0x3fbab19485475abc	0.10427215818286134
176	0xbff11f34e7571cc3	-1.0701188122491636
177	0x3fb06ff3ea6c8fb8	0.06420826409572455
178	0xbff543d1a2aecc23	-1.3290573458477943
179	0x3fe8af1a29958c43	0.7713747799101686
180	0x3ff084171e4539ff	1.0322486097753651
181	0x3ff480f1400eb8ae	1.2814800741430576
182	0xbfd317661dd25598	-0.29830315506236493
183	0xbff273fffe608137	-1.1533203064537483
184	0xbffe3c91654ec95e	-1.8897870976766948
185	0x3fed2057659baad2	0.9101979240925522
186	0x3fe1cf8907c1ea52	0.5565838958276095
187	0xbffa75b0af3050e5	-1.65373295243358
188	0x3ff5843ed7711a68	1.3447864928908988
189	0x3fb31e2fc806cbc0	0.07467936166248901
190	0xc0058d83916974f9	-2.6940986023242854
191	0x3fef9bf0dd2e6869	0.9877857513377083
192	0x3feb2575f283354b	0.848322843224801
193	0xbff074e41d9dd215	-1.0285378605741518
194	0x3ff4a6f662366204	1.2907623135016602
195	0xbfd6c02e545c225a	-0.35547979582091715
196	0xbfe6169c02ea9dc8	-0.6902599389040285
197	0xbfe0af34992eced0	-0.5213873855450064
198	0xbfe095ac74b802c8	-0.5182707099594035
199	0xbfd18dd928f1184e	-0.2742827319929163
200	0x3fe2c6f0cc7dd98c	0.586784743688257
201	0x3ff0038691e179bd	1.0008607576815927
202	0xbff3f9f060bb834b	-1.2485202578174774
203	0x3fbd054380599ec0	0.11336156734034386
204	0xbfd54b151b1558ac	-0.3327076687322783
205	0xbfce4eeb70285274	-0.23678343750420405
206	0x3fe4e33f6ac5dcfa	0.6527402005584968
207	0x3fd787fb44905e30	0.367674653012247
208	0xbfdaf51ce1266096	-0.4212104986886599
209	0x3fe687a5ee7e9254	0.7040586145490786
210	0xbfda704ab2589a15	-0.41310374657260357
211	0xbfde92bce81df098	-0.47770617168112883
212	0xbfa31af746ccc5d0	-0.037315108673634634
213	0xbff319fb50b5eade	-1.1938431885488892
214	0xbfec93b6c56862b8	-0.8930314880008927
215	0xbff0f15ebac9e86b	-1.058928231852884
216	0xbfdbba9fe49d6fcc	-0.43326566053087556
217	0x3fdf799a378b1470	0.49179702209614273
218	0xbfbe7d77301a5c9c	-0.11910195278538754
219	0x3fa14958f2a49080	0.0337627216524945
220	0xbfcfb566894c93b8	-0.24772340492304834
221	0xbfe1466a27b827d9	-0.5398455405968391
222	0x3fd8c898977794f1	0.38724341193876827
223	0xbfe94e139ec6dd13	-0.7907808400258624
224	0xbfed2ed8a7880894	-0.9119685432526858
225	0xbfc1f19f278f87f2	-0.1401862090270352
226	0xbfc3fb8cc5ee7ea0	-0.1561141935790049
227	0x3ff19383d1eef2ab	1.0985143852732715
228	0x3fcdf44e617646ba	0.23401813277137312
229	0xbfeab6ee3d889b5c	-0.8348303987339523
230	0x40042ad795253ff7	2.5209190036766773
231	0x3fc1956167e12000	0.137371230814324
232	0xbff7be9f3f7c5d03	-1.484038589469322
233	0xbfd7ba776c26ef96	-0.37075601159789906
234	0x3ff1ce10e7aa465d	1.1128090905589467
235	0xbff4c55876dae87a	-1.2981800692346313
236	0xbfc35b0429230bb8	-0.15121509560239388
237	0xbfef4875a50f6342	-0.9775951598959198
238	0xbff46f2d39b221bb	-1.2771427396529436
239	0xbff5d6d382d25a4a	-1.364947806379535
240	0xbfe7784b3b0c2028	-0.7334343102711545
241	0xbff3e252fc627948	-1.2427549227500823
242	0x4000b4e0cc6f7873	2.0883193942564104
243	0xbfcaf9ebabb08504	-0.21075197108533683
244	0x3fe438524797936a	0.6318751714976376
245	0xbff1c2c34fa80f2a	-1.1100495444852165
246	0xbfb2c60eb54cfee0	-0.07333461691177545
247	0xbfc5ee813aa2e57e	-0.17134108889676364
248	0x3fe764a827645eb3	0.7310372132660262
249	0xc004060ce1ff77ae	-2.502954259499311
250	0x3fca964c82841aea	0.20771175740102105
251	0x3fe47db2c6800be5	0.6403440358120603
252	0xbff1cfb476d742a4	-1.1132092134686582
253	0xbffad91e16af6ff3	-1.6780072103638275
254	0x3fd79d4e45429cfd	0.3689761806840151
255	0x3fd340c6e5441b40	0.3008286703993015
