assignment1/results/w1_LR_10.00.npy (npy, 20688 bytes, 1 tensors)

array f8 [257, 10]
000000 6c 7e 8f bc 59 c3 e8 bf 98 ea 6d 11 76 43 d0 3f
       -0.7738465006659232 0.2541175050934412
000010 38 60 60 29 59 88 e6 bf 54 3a 4b a5 7a 25 e3 3f
       -0.7041440780767578 0.598325083579605
000020 36 3e 69 51 72 7e ee bf 30 6c 28 ce 45 03 f1 bf
       -0.9529353704510359 -1.0632989934008599
000030 d0 35 50 91 e0 81 e9 bf 9f d3 0b e3 a7 ed e5 3f
       -0.7971041525030902 0.685260718774419
000040 b0 d0 03 c2 5f bd c9 3f 9e 7c 9c f6 c2 57 ee bf
       0.20109173749336184 -0.9482130829454893
000050 30 54 07 4c 59 3d a4 bf 41 ac bf e7 86 2d f1 bf
       -0.03953055432399599 -1.0736149838146647
000060 44 48 bd 69 5e af de 3f 90 55 8e b6 93 be 00 c0
       0.47945366216766083 -2.0930551778971633
000070 36 90 43 29 c1 15 ec 3f b3 71 56 25 d2 53 e0 3f
       0.8776555829940722 0.5102320412875571
000080 08 da d6 fc b5 2d f1 bf 80 13 7a 26 b2 9e bb 3f
       -1.0736598850759282 0.10789025725723711
000090 f6 55 03 e3 38 62 e4 bf 6c 50 10 d7 2d f2 f1 bf
       -0.6369900163505793 -1.1216257477690545
0000a0 7c f9 2e 1b b1 ae d8 bf 23 33 39 ba 27 65 01 c0
       -0.3856623425926029 -2.1743921803194026
0000b0 b0 5c 4c 30 d6 b5 f7 bf 54 fe f8 fd 46 5e bd bf
       -1.4818937193538595 -0.11471980762962036
0000c0 4c 3d a5 03 a9 7d e9 3f 06 b7 27 94 9d 38 e1 bf
       0.7965893813324469 -0.5381610768942842
0000d0 5b 62 42 f1 1c fe e3 3f 85 91 c3 c7 5d a7 00 40
       0.6247696601959193 2.081721840530181
0000e0 ac a3 15 fe 94 a5 e7 3f 1e 1b b4 8c bd 18 e3 bf
       0.7389626467312289 -0.5967700718036644
0000f0 e6 3c 51 a3 06 6b b3 bf ac a7 c8 df ec c4 e0 3f
       -0.0758518360828365 0.5240387316491613
000100 9e 41 e1 17 0a 11 00 c0 f8 b4 73 8d c1 00 d5 bf
       -2.0083200326555035 -0.3281711465231889
000110 c8 e1 bc 1c b6 45 c7 bf 79 5a 43 23 69 61 f0 bf
       -0.18181492236341357 -1.0237819077935042
000120 10 32 7c f3 5f 8c e3 bf 3d 46 3e ba c8 6e e4 3f
       -0.6108855968064422 0.638523448711744
000130 34 5b e6 29 ae 18 f4 bf 36 3a 35 0a 2e 2e d6 3f
       -1.2560254704200817 0.3465685939490045
000140 14 b3 2e ee 95 a3 d7 3f a9 03 7f bd 04 47 f1 bf
       0.36935947666170077 -1.0798385050004333
000150 d9 15 dc ec d7 2b e8 bf a0 64 e8 31 1e 69 f1 3f
       -0.7553519846121005 1.088163561775481
000160 97 f4 9f c3 02 b0 fe 3f 8c 80 7e e1 d7 19 f8 3f
       1.9179713861078989 1.5063093956341929
000170 95 5b 28 29 bc 71 f0 3f b0 bf 5e ae d4 76 b1 bf
       1.027767334720669 -0.06821946389277289
000180 53 24 d5 7a 02 2f fa 3f 2f 47 5c 18 ba f3 f3 bf
       1.636476974310672 -1.2470036460476412
000190 3e 82 7e bc 52 95 f0 bf 37 2d 85 ed 8b bf f6 bf
       -1.0364558566144662 -1.421764304936756
0001a0 22 be 2f af 5b e1 f2 bf 8b f1 3d ed 3e c2 f7 3f
       -1.180019077608343 1.4849232928528149
0001b0 54 f0 e3 f3 0e ca f2 3f 2b 55 b6 ee c8 15 00 c0
       1.174330666252918 -2.010637154521324
0001c0 18 8d ea fa 6a 72 df 3f f6 d1 a4 d6 97 e7 ca bf
       0.4913585138658205 -0.21019266110091878
0001d0 44 84 ec 84 00 c3 e8 3f 36 bf a0 c1 32 fb de 3f
       0.7738039585275449 0.48408192547775586
0001e0 03 5e df ac 17 cb e4 bf 44 98 6a 5a 90 cc f0 3f
       -0.6497915626923149 1.0499423534288477
0001f0 a3 5a 33 84 96 16 f4 bf 34 76 84 7d b7 47 e6 bf
       -1.2555146373830801 -0.6962544871818808
000200 c3 58 38 16 88 5f e5 3f b0 1b 66 38 5e b9 c6 3f
       0.6679115709291853 0.1775319838891085
000210 e4 3f 33 d6 c1 84 b9 3f 44 2e 28 fb 1c 16 da bf
       0.09968196372506061 -0.4075996830658577
000220 03 c3 2a f2 3b d5 f1 3f 8d f1 38 83 14 83 d8 bf
       1.1145591220521858 -0.38300049605074876
000230 b1 53 03 d0 d8 4d ee bf 78 ce 07 a4 13 52 c5 3f
       -0.9470027983430694 0.16656728276540256
000240 30 34 62 2a 1f a9 cd bf 5d c4 47 3d 0c ff fb bf
       -0.23172368592750692 -1.749767531753853
000250 ac a8 b7 59 af 04 00 40 0d 39 c0 c0 2e ca fa bf
       2.002287579457592 -1.6743609933215027
000260 52 75 74 d0 4a 27 df 3f 97 6a fa 68 06 88 04 c0
       0.4867732082073718 -2.5664184762402544
000270 50 78 e6 90 e1 8d d6 3f dc fe ee bb 4b 9f fa 3f
       0.35240973616044347 1.6638905850558592
000280 32 fb 58 c9 23 d6 ce 3f 92 fa d2 22 99 2b df 3f
       0.24091002780365894 0.48703602219385644
000290 7a 68 38 a0 2b ab f4 bf 94 37 52 81 ec 86 b1 bf
       -1.2917896517378993 -0.06846502454047104
0002a0 b5 f8 27 9b 3b a8 f5 3f 0e 61 ad ce f7 62 ea 3f
       1.3535724697863263 0.824581054369476
0002b0 94 0e 2d a9 62 66 d8 3f 9d 13 53 e7 55 98 fe bf
       0.3812491085156833 -1.9121912990678773
0002c0 88 b1 f1 82 c2 00 c7 bf d0 10 92 0d 21 8c ea bf
       -0.17971068757777808 -0.8296056046533753
0002d0 44 02 b7 b2 01 7d e3 3f 6a 90 f9 d5 1a 31 e6 3f
       0.6090095987820594 0.693494241637848
0002e0 4b 06 18 d7 cd 2f f1 3f c0 f3 79 7c 66 84 04 c0
       1.0741709138968811 -2.5646486019818155
0002f0 9a ef 62 62 39 6a e7 bf ae c8 93 de 16 66 ea bf
       -0.7317168161020959 -0.824962076874973
000300 d2 9d ca 5e 32 76 f5 3f 68 3d fb 2f 96 20 fc bf
       1.3413566305915663 -1.7579557298921262
000310 de c3 0a 64 29 3a ea 3f dd 8f a0 75 3a c3 e1 bf
       0.8195998147913277 -0.5550815865904003
000320 29 d2 98 f8 c2 2d e9 3f 48 f8 d9 dd 2a 38 ce bf
       0.7868361335191071 -0.23608909447279047
000330 bc c6 10 2f 37 d2 e0 3f de 4f 7a ef 7c 26 fe bf
       0.5256610793350869 -1.8843964914894893
000340 b1 9e d6 7b db 4a dd 3f fe 3d 44 94 cd 54 f6 bf
       0.4576939305647825 -1.3957038680708815
000350 a1 f2 67 a9 f6 ca f1 3f 48 c0 02 68 eb c1 f2 bf
       1.1120516412185355 -1.1723436415595803
000360 86 a9 8f 88 d6 e2 f6 3f b5 34 21 88 c8 38 f8 3f
       1.4303803762837517 1.513863116985971
000370 a0 a0 0b 7f b6 8e 06 c0 c2 d9 b2 fa 5e 92 f1 bf
       -2.8196840215133108 -1.0982351105609358
000380 d0 67 02 62 03 be c6 3f 6f 3e a4 8b ac 75 eb 3f
       0.17767374311080042 0.8581145026564182
000390 43 37 ab b2 99 db e8 3f 16 d8 8d d1 c0 5c 03 40
       0.776806687319301 2.420289647237051
0003a0 7e f2 69 f1 0f 61 f6 bf 0b d7 dd a9 5c 12 eb 3f
       -1.3986968450764432 0.8459914510446834
0003b0 ab 7f 6c 4c 73 be fc bf a0 e7 13 e2 d0 c1 f0 3f
       -1.7964966759973133 1.0473183470880727
0003c0 76 7f 3b 36 a1 0c e4 bf c8 35 29 90 50 9e f5 3f
       -0.6265417155482129 1.3511510497368011
0003d0 6b 13 ef 06 9e a3 fe bf fc a7 3c 0a d4 f9 e1 bf
       -1.9149456282477455 -0.5617466163578224
0003e0 8e 0f 3c 7a b4 1b e8 bf 72 0a 06 2f 1d 7a 02 40
       -0.7533819568056843 2.30962597596345
0003f0 fa 2e a8 8b d9 95 e7 3f 28 61 61 57 bc 8e bb 3f
       0.7370422103572019 0.10764672406492493
000400 a4 df 6f 6b 9a bf 07 40 80 80 62 f6 43 c9 dd 3f
       2.968556250907527 0.4654092699147512
000410 4e 0a 68 9c 7c 51 c6 bf 7a e4 d3 0e 7e 2c e0 bf
       -0.17436177861243823 -0.5054312028506864
000420 96 ac f0 5c 26 04 f2 3f 20 40 c5 47 af 5f e2 bf
       1.126013148353001 -0.5741802598731773
000430 7e f4 50 ee 89 8a e0 bf 90 d5 64 b9 b2 cc 92 3f
       -0.5169114737142448 0.018358986440224323
000440 f0 53 5f 47 7e 7f f0 bf fb 07 ee b4 bd 52 00 c0
       -1.0311262882216816 -2.040400899423728
000450 03 c5 25 42 12 c7 e3 3f 8a 78 64 36 e4 f8 f0 bf
       0.6180506984657373 -1.0607645153718601
000460 45 0e f9 2d 67 8f f6 bf 3a d4 62 c2 22 a2 d6 3f
       -1.4100105090918913 0.3536459825803068
000470 61 d7 7a 28 18 86 d0 3f 5e 51 af 6b bd c7 fa bf
       0.25818447068319555 -1.673764629978073
000480 a6 91 3d 4a 22 7e c3 bf 02 27 42 57 5f 11 cd bf
       -0.15228680253052324 -0.2270926643434948
000490 50 cc 50 dc f3 7f d4 3f 74 22 72 64 d8 95 ed bf
       0.32030960574337985 -0.9245416604836252
0004a0 3d 67 16 9b ba f9 00 40 7e b7 a8 52 c8 24 e1 bf
       2.1219379535877168 -0.5357400526461189
0004b0 66 1a be b6 e1 85 f1 bf 6c 25 c5 9e 5e 4b f4 bf
       -1.0951859606153902 -1.2684007837254638
0004c0 10 94 ee 6b 47 c7 c7 3f 8e 2f a5 16 e8 f5 e1 3f
       0.18576901216616237 0.561267894963281
0004d0 66 2d be 1d 59 20 e7 bf 24 04 73 9a 3d af fa bf
       -0.7226987439075117 -1.6677833588767124
0004e0 50 21 74 c5 7a 7d a6 bf f8 80 d3 7e dd 60 f4 3f
       -0.043926083186365816 1.2736487344882885
0004f0 33 cb 76 a3 bc 9a f9 3f 9b 81 79 e2 4e 5e f1 3f
       1.6002775559724796 1.085524449030436
000500 06 88 d4 cf da 6c c3 3f f4 bd 9a bb 24 6f c9 bf
       0.1517594828411008 -0.19870433006643362
000510 6b 62 d5 0b 43 12 f4 bf 34 28 81 86 96 92 e3 3f
       -1.2544584715125449 0.6116440417329216
000520 b7 0e 2d 46 bf a5 d6 bf 03 fb fe 43 b3 01 f8 bf
       -0.3538664040863568 -1.5004151016325415
000530 b8 a0 50 82 79 cc 03 c0 74 6e ef 65 29 e9 d7 bf
       -2.474841135106626 -0.37360606150261977
000540 8e 8c fe 44 36 d6 f0 3f f7 f3 b9 3e 31 a8 e8 bf
       1.0522978491870023 -0.7705312943577373
000550 8a f6 a8 e2 2d 1c f1 bf 9f 7e 43 7c f3 3e e9 3f
       -1.0693796972185816 0.7889344622635298
000560 42 60 43 c2 9b 89 04 c0 00 ea ed 0f 2f be e1 bf
       -2.5671916176616216 -0.5544658003921654
000570 b8 31 89 cc 24 f0 e5 3f 9a 5b ad 48 68 26 fc 3f
       0.685564422115525 1.759376796622496
000580 7e 81 12 b0 72 4c ef 3f 4a 4a 83 09 96 13 fd 3f
       0.978082031146229 1.8172817584605974
000590 05 7e f2 64 f9 64 f6 bf 4a 54 64 bb 0d 8b e9 bf
       -1.3996519034625419 -0.798224321365191
0005a0 f2 fb 50 12 84 97 d0 3f b6 49 ff 25 22 3d d0 3f
       0.2592477969046164 0.2537312861506068
0005b0 52 cf 63 0f 55 07 eb bf 6e d3 d5 70 5d 13 d6 3f
       -0.8446450520118367 0.3449319459826289
0005c0 f8 9e 14 86 1f 88 ca 3f ec 98 82 b0 74 2c f0 3f
       0.2072791485490979 1.0108534712722372
0005d0 14 0a cd a5 6b 12 dd 3f 9e 59 ca 25 82 a3 cf 3f
       0.45424929801461755 0.24717738003955686
0005e0 b7 25 ee ab 07 9e f0 3f a3 7d 7b 2e e0 d0 d5 bf
       1.0385815349603555 -0.340873761551814
0005f0 e7 6d 02 05 55 4f e0 bf d0 97 4a 6d 38 75 e5 3f
       -0.5096840951768485 0.6705591330144163
000600 b4 c6 3d 4d b9 05 ef 3f 9f 85 f4 08 9b da d3 bf
       0.969448710309925 -0.31021762728240704
000610 46 80 bc cb 2b 9e ea bf 15 3e 00 fc 1f 9c fa 3f
       -0.8318079928612938 1.6631164401804928
000620 b0 f2 cc 5b 39 8d d8 3f e0 09 2c 5c ea ad e8 3f
       0.38361963238620955 0.7712299156412961
000630 da 9f 71 8e e0 b2 07 40 ee 1d 81 3c 79 c9 e0 bf
       2.9623423698831006 -0.5245939428068007
000640 4e 31 6e 82 66 c2 d6 3f 1d 23 1e 4e f3 19 f7 bf
       0.3556152604803814 -1.4438355494950834
000650 48 41 6a 3d 95 a1 dc bf 79 a3 5e e6 f4 b7 fc 3f
       -0.44736224172176664 1.7949112891021441
000660 a0 4b 3d c4 ba 03 da bf 36 01 9d e7 f2 4c 02 40
       -0.4064776340866789 2.2875726790226976
000670 94 45 33 76 fe 99 e5 bf 9c ac fe 33 39 35 f4 3f
       -0.6750480946158626 1.2629940062568386
000680 88 42 3f a1 1c d2 fb 3f 14 17 c7 89 bc 3c fd bf
       1.73879683482315 -1.8273282415333982
000690 78 74 6c f4 c5 f7 e5 bf 8c 8a ee 03 68 ce ee 3f
       -0.6864957593821961 0.9626960827630042
0006a0 00 7a c7 43 a3 86 df bf 04 f1 3a 13 64 71 db 3f
       -0.49259263629019756 0.4287958324237169
0006b0 dc 89 3e be 38 a1 e3 3f 1a 16 68 12 2b 5a d8 3f
       0.6134303775509653 0.3805034332038716
0006c0 1a 64 e8 ca 9b 6c 01 40 d3 b1 24 43 ad 6d 04 40
       2.1780315258188354 2.5535531278203307
0006d0 71 4f c8 aa 10 d5 03 40 e2 17 b0 12 2f 57 f3 bf
       2.479035696256624 -1.2087851266855911
0006e0 84 eb 62 03 f1 67 cf 3f f6 84 14 d6 4a de e1 bf
       0.245359541562575 -0.5583852940800671
0006f0 96 b3 5e aa 32 e6 f0 bf c1 30 ea 74 7b 21 d3 bf
       -1.0562006621432594 -0.298918594526878
000700 fc ac 8f 6d 76 01 00 40 b8 c5 c1 9b 56 4c f6 3f
       2.0007141646834707 1.3936372837309658
000710 da 92 57 57 f2 9e c2 3f 02 bd 61 40 1e 53 e7 bf
       0.1454756666636488 -0.7288962609726755
000720 e8 65 1b 12 3b bf d1 bf 0a 5a ab b2 54 4c f1 3f
       -0.27729679840339694 1.0811354617377469
000730 9e 9a 3d 20 fb 9a f3 3f ba da c7 c4 00 47 e5 3f
       1.2253371486091633 0.6649173587200814
000740 8e c8 16 48 56 c0 e0 3f af 9a 8d b9 ee 90 f4 bf
       0.5234786422718274 -1.2853839157266227
000750 6c 5c a9 e4 b5 09 09 40 58 38 83 6c 54 85 dc 3f
       3.1297414650139697 0.4456378040021085
000760 e0 66 27 22 ea 26 dc 3f 0e 9e 03 d3 6d f0 03 c0
       0.4398751576933204 -2.4923969731787627
000770 fe 1a 18 9a cc 51 d6 bf fa 8e 4e 42 5b 9b 02 40
       -0.3487426285577583 2.3258576565002587
000780 e6 d4 28 d7 f9 b1 fa 3f 26 7d ca 6c fa 1f f2 3f
       1.6684511570613778 1.1328071832320545
000790 01 02 3d b1 4f 9e e7 3f 75 6e 1f 4e 8e 69 f8 bf
       0.7380751096425798 -1.525770478407961
0007a0 fa 4c 02 12 1c 82 d2 3f df 47 6c e5 b2 7b 04 c0
       0.28919126280489105 -2.560399811140982
0007b0 af 89 ae d6 5d 10 e5 3f 28 8d 0b 41 3d 3b bf 3f
       0.6582478707317047 0.12199766958251657
0007c0 e9 6d 6d 02 0c e6 01 40 56 cd 90 2a 96 86 db 3f
       2.237327593769568 0.4300895133667003
0007d0 a3 fc ea 0d b1 00 f8 3f 62 d1 e1 b2 11 71 f7 bf
       1.5001688522022867 -1.465104769476135
0007e0 08 04 f2 bd 63 be d2 bf e8 15 f2 88 34 b3 b6 3f
       -0.2928704600272458 0.0886719545688589
0007f0 60 31 6f d0 70 7c f1 3f 20 ae ac 43 d9 7d f3 3f
       1.0928810255018888 1.2182247775589374
