assignment1/results/w1_LR_8.00.npy (npy, 20688 bytes, 1 tensors)

array f8 [257, 10]
000000 db 75 06 74 0e c8 f0 bf 8b f0 ec 50 1f 35 d3 3f
       -1.048841908668115 0.30011732962498944
000010 80 ea 90 0f 9b 67 01 40 be f2 bf 98 df ae e3 3f
       2.175588723764406 0.615096853579949
000020 00 af 8d 19 da 9a c0 3f fc 92 ed a0 5c e1 dd 3f
       0.1297257065556252 0.46687999454142903
000030 b8 66 10 21 7d 17 f1 3f 56 df 1a 48 5a a6 ce bf
       1.0682345668378002 -0.23945168038130288
000040 92 75 5e bd d9 ba f6 3f 1e 5a 00 94 68 2f f3 bf
       1.4206178090310897 -1.199074342851993
000050 24 48 58 2e 22 c7 03 c0 f5 09 7f cb 98 c8 fe bf
       -2.4722331638995616 -1.9239738415786836
000060 d8 b2 39 8c 56 75 ca 3f de 48 d3 1a 0c 16 e6 bf
       0.20670587393705975 -0.6901913188869704
000070 48 11 52 d8 6e 6e ed bf ca 40 e8 8f fa 01 b8 bf
       -0.9197305893908743 -0.09378019345627134
000080 2c 65 5d df 65 b4 c5 bf 18 33 91 26 29 64 a7 bf
       -0.16956780821309658 -0.04568604083815425
000090 8a 14 96 80 29 0b f0 3f 06 1e e9 0a 17 7a e9 3f
       1.0027251265430857 0.7961535657022416
0000a0 84 3e b5 e0 fb 37 c2 bf a9 82 0d 6c 7c a4 f4 3f
       -0.14233349296636189 1.2901577206431887
0000b0 94 a1 a9 26 d8 d3 c4 3f dc e7 eb e4 ce 01 dc 3f
       0.16271497619460418 0.4376103625833119
0000c0 f5 df ee 28 91 f9 f0 bf 8a c0 d6 59 44 82 e0 bf
       -1.0609294508885772 -0.5159017328897033
0000d0 1b d1 9a 94 dd 7b f5 3f c0 21 88 f9 5d 0f a3 bf
       1.3427406124947712 -0.03722661658327153
0000e0 95 d9 cd a8 6a 50 f6 bf 82 26 63 9b c2 79 db 3f
       -1.39463296832182 0.4293066518263019
0000f0 2e e6 ba c6 50 31 de bf 69 9d ed f5 fa 98 07 40
       -0.471759981224383 2.9496974194659527
000100 ed 4c 22 07 71 65 e6 bf e6 d2 98 db 35 92 f6 3f
       -0.6998829974494619 1.4106958940512242
000110 4e 5a 45 0f 40 8f f1 3f 6c d1 aa da 28 6e eb bf
       1.0974732014198199 -0.8571972151608356
000120 8a 97 77 18 04 2c e0 3f d4 bf ec cb 51 b8 f7 bf
       0.5053730466722623 -1.4824998822987157
000130 84 15 14 72 7d 91 cc bf 58 5d 88 9b f8 71 f7 bf
       -0.22319000311123827 -1.4653249812598315
000140 a4 33 ab 25 51 2a d4 bf 8b 0a e1 1a 44 65 f0 3f
       -0.3150828235491707 1.0247231531108436
000150 f4 07 ed e9 30 db b2 bf ca 7c f7 46 46 b1 e1 bf
       -0.07365709029275519 -0.5528899560994429
000160 38 9f c3 0a f9 a8 bf 3f d8 80 a2 71 90 44 c1 bf
       0.12367207062527263 -0.13490491436551255
000170 60 67 c7 59 34 c6 f6 bf de fd bf 39 bb 0b ec bf
       -1.423389769266997 -0.8764320495537807
000180 88 82 89 b9 6c 32 f4 3f f8 4a af a8 ae a3 c7 3f
       1.2623107192559093 0.18468268620070893
000190 f6 ad 5e 8e c2 59 06 40 53 72 38 32 86 27 ed 3f
       2.7938281176227475 0.9110747319096596
0001a0 d8 c7 0a 45 6a 40 e5 3f 27 d3 59 9a e1 2f f2 3f
       0.6641131733397243 1.1366897610980204
0001b0 1e 5a c2 45 09 c1 fa 3f 54 41 d2 3b ca 36 e8 3f
       1.6721279835670724 0.7566882294068287
0001c0 88 28 be 5a e4 70 ba 3f 66 40 6a 2b 18 0c eb bf
       0.10328509536171471 -0.8452263687086201
0001d0 a4 11 c7 6d 7f ab df bf f0 e7 06 e6 53 fa f5 bf
       -0.494842393116665 -1.373615168135526
0001e0 17 94 09 5c 36 85 f1 3f f5 c3 82 39 b5 ef f5 3f
       1.0950225444041786 1.3710224386707044
0001f0 50 ee 59 e0 cf 97 b8 bf a3 d0 24 94 8d 9b e1 bf
       -0.09606646754576187 -0.550238408416153
000200 da 9a 6b 59 92 6d f6 bf c6 52 6e a2 ee 8e f2 3f
       -1.401750897691889 1.1598955483397488
000210 a7 83 ca a5 7f 0e e2 3f d0 cd e2 a1 51 74 d4 3f
       0.5642698515040266 0.3195995407979497
000220 74 22 d7 03 0b 69 c4 3f 80 f3 5c 01 5d 8e df bf
       0.15945565879362145 -0.4930641663848334
000230 98 92 c3 b6 cb 48 fe 3f 62 e8 b2 b3 bf 5f f2 3f
       1.8927724017350211 1.1483761805998474
000240 5e 34 0c 77 03 4c ff bf 0c 58 84 49 f6 c8 f3 3f
       -1.9560579920100944 1.2365630027538854
000250 f0 81 38 68 ad 02 96 bf 08 f1 9b 1d 43 e2 de bf
       -0.021494588361862854 -0.48255994693296644
000260 84 21 36 1f fc 55 ee bf 2c f4 4e 40 68 dc e3 3f
       -0.9479961976622211 0.6206551795982072
000270 c1 42 70 f6 b3 a1 c5 3f ae 7b ab 62 f3 ba f4 bf
       0.1689972832978324 -1.2956422666827438
000280 18 e7 04 8d 87 a0 c7 3f 40 6e 4e 06 ed 96 c0 bf
       0.18458647142124884 -0.1296058922570058
000290 4e 3f 73 f6 e2 31 07 c0 a3 ce 39 87 1b 77 e9 bf
       -2.89935867823798 -0.7957894936684692
0002a0 51 b5 f2 11 48 2f e0 bf c4 9d 87 f1 cb 4d c6 3f
       -0.5057716703937932 0.1742491654724586
0002b0 bc 2c ae 02 a6 ba c1 bf 7a e5 87 11 db a8 ec 3f
       -0.13850855952146002 0.8956122724913904
0002c0 42 45 b0 36 2a 0d ec 3f 70 67 65 fd 1c d4 e6 bf
       0.8766070430885196 -0.713392729677464
0002d0 46 5a 2f 85 1f 7a e9 bf a2 de ba 78 3e ce 01 40
       -0.7961576081532449 2.225705092623529
0002e0 72 99 93 4a f2 6d 05 c0 f8 14 2c b3 3e 0b d3 bf
       -2.6786847902578126 -0.2975613355377642
0002f0 40 c3 5b 96 90 37 8f 3f 86 22 17 ce aa d6 e8 bf
       0.015242700184417424 -0.7762044930651235
000300 e4 d3 71 6e 3d 52 cf 3f 70 03 05 3e d6 14 cc bf
       0.24469726460270558 -0.21938589123058305
000310 58 9b ce 6c 64 fa c9 3f 80 4c e0 2f 36 24 9f 3f
       0.2029538661274397 0.03041157405102668
000320 0c 69 b1 0e 6e d0 a1 3f 7b 3e b4 38 99 2c e0 3f
       0.034793319028454034 0.5054441554547816
000330 74 18 92 85 f3 68 e7 bf d8 35 22 db 44 07 fb bf
       -0.731561432724233 -1.6892746505649168
000340 4c 88 90 78 80 05 f3 3f 38 30 41 78 c8 37 08 c0
       1.1888432225755592 -3.027237834443465
000350 4b cc 7e 27 41 d2 d3 3f 20 bc d8 21 2b 8c a0 3f
       0.3097079168030105 0.032319400674502896
000360 42 73 dc 24 0a 28 de bf 98 fe 0e 85 e3 a0 c0 3f
       -0.47119382476539695 0.1299099349689541
000370 33 8c 13 11 3a f3 f2 bf 08 93 72 e8 2a e1 e5 bf
       -1.1843815485997424 -0.6837362804404572
000380 96 bd 9e 9c 1d ce 03 40 0b 76 b3 70 12 5a 08 c0
       2.4756424175208833 -3.043980484463423
000390 1b 4d 05 af ed cc e4 bf 1c c6 5c 00 25 e8 d9 3f
       -0.6500156801579665 0.4047939780749361
0003a0 2c 50 c3 47 e8 5c f3 bf 73 e7 6a 58 2f 2d eb 3f
       -1.2101824572791982 0.8492657400995384
0003b0 8c 9d c3 01 3f c0 f5 bf 13 f8 cb 6f b6 93 f4 3f
       -1.3594350880538029 1.2860626570759492
0003c0 70 35 e7 00 29 65 e3 3f 7e 89 af 81 b3 d0 f6 bf
       0.6060986535682513 -1.425952440819486
0003d0 24 79 cb d8 14 21 f9 3f 09 22 c8 58 40 06 e0 bf
       1.5705765217349574 -0.500763104822057
0003e0 28 68 7d 29 0d 53 c3 bf 95 bc 1b 95 a3 15 0b c0
       -0.1509720280253657 -3.3855659150209
0003f0 18 ae 67 5c 0e fb ef 3f ad e0 fe ec 07 dc ec 3f
       0.9993964962754402 0.9018592480488415
000400 52 c4 60 11 4a c4 f9 bf 82 4d e6 3d d2 53 e3 3f
       -1.6104221991374925 0.6039820870377499
000410 81 0d 88 b1 29 af d7 3f 46 28 c4 67 92 9e eb bf
       0.3700660928445459 -0.8631069208797804
000420 9c ab c5 df b9 53 ba bf f9 f4 6b 40 0a 9d f1 bf
       -0.10284005845248462 -1.1008398548577232
000430 7c dc 97 cf 32 d8 ed bf 10 87 39 2f f6 e1 e6 bf
       -0.9326414160303922 -0.7150832102163083
000440 fb 47 34 61 2f 92 f9 3f 18 4c a9 58 ea 96 bf bf
       1.5981897160568213 -0.12339653648932403
000450 65 4e a9 1f e8 a0 e1 bf be 59 b1 e5 fb d1 da bf
       -0.5508919351945677 -0.41906640463767164
000460 4a 6a 60 d5 b8 e3 9e 3f 3e 10 cd e1 c5 b9 e1 bf
       0.030165565513110594 -0.5539273653198575
000470 44 68 b4 42 fe 0d e9 bf 06 c6 7f ce 93 94 04 c0
       -0.7829581549478992 -2.5725475437873255
000480 fa 13 0b 3d 06 08 cd 3f c6 88 0d 6f 30 df f6 bf
       0.22680738430622666 -1.4294895494463602
000490 5d 4f 87 92 90 fa b5 3f 72 7c 34 e4 ad 28 f4 3f
       0.08585456445081037 1.2599314607866998
0004a0 00 f8 b5 2f 2d 00 72 3f e7 75 e3 2b 38 df c7 3f
       0.004394699582347172 0.18649961607927354
0004b0 b4 34 09 8f ea ff bb bf 08 c1 fd ff 6c f3 e6 3f
       -0.10937372200096968 0.7172150611714025
0004c0 62 dd 64 24 db 45 de bf a6 53 a8 b0 aa 25 de bf
       -0.47301367334462985 -0.47104899646483955
0004d0 ea 5f 46 1f b6 b3 f3 bf 74 bc a0 46 b9 68 a6 3f
       -1.2313748571086713 0.04376772868305859
0004e0 f2 d6 00 81 d4 94 d2 3f 39 81 ba 27 c2 3b e4 bf
       0.2903338680074362 -0.6322947288463531
0004f0 14 0a be 48 c2 11 bc 3f 71 cf a6 06 72 a4 e9 3f
       0.10964597965179507 0.8013239030756109
000500 1f 60 a3 df a0 d5 f7 3f 9b fc d8 1d e5 7f e5 3f
       1.4896553741327876 0.6718621809922242
000510 84 7d 75 ce 42 1a e5 bf c6 8b c1 c6 1b 8f b4 bf
       -0.6594556839371966 -0.08030866243784293
000520 d1 f1 c7 bd ae e2 f3 3f d4 a8 21 b9 0d fe ce bf
       1.242842427570498 -0.24212810077307856
000530 32 25 0d 32 4b 3d d3 3f 23 8d 6c 92 d4 01 e9 3f
       0.30061607253863365 0.7814734325260456
000540 7e aa d7 34 17 3b e3 3f fe 0e 06 45 2b ef f1 3f
       0.600963214118863 1.1208908745037998
000550 bc 7a b9 be 64 ba e6 3f fe 49 0e 6e c2 17 f7 3f
       0.7102531170929391 1.4433006571822484
000560 00 8d f1 68 97 24 ce 3f 2f 22 cf 8e 34 aa e6 3f
       0.23549168228337436 0.7082770146599325
000570 08 17 eb ff a7 5c c7 bf 88 11 b6 95 c5 1a e9 3f
       -0.1825151443101094 0.7845180439040158
000580 d0 7e e2 4f 07 f2 b8 bf 36 38 2f d5 87 6b 04 40
       -0.09744306278525561 2.5525051741633673
000590 1f d6 55 72 28 68 e8 3f 7f 92 46 60 ae aa c8 3f
       0.7627145989524172 0.1927087755294856
0005a0 90 0e 25 fd bc 8a e2 bf d3 52 2a f8 0a 86 e6 bf
       -0.5794358200295893 -0.7038626524905233
0005b0 aa be 97 ea 6e 45 f6 bf 13 2b bc 7f 80 12 e7 bf
       -1.3919514812259117 -0.7210085387062882
0005c0 d8 02 c5 29 9e ab ba 3f ae bc 21 69 70 ff e5 bf
       0.10418118018879896 -0.6874315312724286
0005d0 9e 75 80 bc 9c ed e7 3f 84 f2 de 78 ed f3 dd bf
       0.7477554017711332 -0.4680131607417837
0005e0 2a c2 7e a0 fe a4 f3 bf 6e 19 54 eb 92 fb d9 bf
       -1.2277818936673932 -0.40597985249805546
0005f0 33 8a c1 ee d4 dc e1 3f ec 70 1e 30 65 73 e2 bf
       0.5582070029452723 -0.5765863361189338
000600 3e 0a c7 bc cb d1 f0 3f aa 27 c4 61 74 36 e2 bf
       1.05121968976222 -0.569147292089146
000610 ae 85 41 81 f0 22 f7 3f 99 c5 1c 3a 7a 6b e0 bf
       1.4460301446018593 -0.5131198058135623
000620 98 30 9f d0 06 7d c9 bf 21 82 ce 83 71 07 d2 3f
       -0.19912800966847466 0.28170431014771863
000630 84 d2 72 76 1e b8 00 c0 58 3c 14 f4 5c b8 b7 bf
       -2.0899018529692643 -0.09265690764390067
000640 40 f6 8d d2 b7 54 98 bf 18 e0 82 88 0e 14 df bf
       -0.023760673738698168 -0.4855991681210994
000650 e6 70 aa 6d 4e 21 fa bf 4a 27 58 19 58 c5 c3 bf
       -1.6331314357585653 -0.15445996510998788
000660 b9 60 4b fb 89 47 fe bf 60 bd 6c 29 83 19 e9 bf
       -1.8924655739011043 -0.7843643006398615
000670 e0 8b 64 70 3d 80 ca bf c4 4f bc 2f 66 d1 00 c0
       -0.2070385741036196 -2.1022456864684234
000680 99 49 27 a9 45 f6 d1 bf 5e d4 24 cd 50 44 eb 3f
       -0.2806562568559002 0.8520893103328822
000690 5e e9 ba ff f9 f6 c8 3f 8e ca 3d 57 6d 5e e0 bf
       0.1950371264154666 -0.5115267471249625
0006a0 9b e2 ba 1f de 6c e0 3f f0 b4 e5 67 5f cd c5 bf
       0.5132895107008894 -0.17032997677907913
0006b0 c8 6b a2 ff f5 1e eb bf 73 a1 12 23 91 c1 f3 3f
       -0.8475294106350413 1.2347575540571512
0006c0 de c1 72 44 b2 17 f1 bf 78 a4 f8 d5 0f 86 f9 bf
       -1.068285243392999 -1.5952299459698036
0006d0 62 ba e2 9e 00 92 fe bf 5a 02 cb 91 c4 30 d3 bf
       -1.9106451231451946 -0.29985155332182034
0006e0 c8 0c 4c f7 40 b5 f1 bf 94 cf de 2d 5b b3 fb 3f
       -1.1067514095346258 1.731288127118181
0006f0 fe 40 b9 9b cf 9e 07 c0 0d 3b 1e e5 2f 7c cf 3f
       -2.952544418898582 0.24597738921553294
000700 2d 64 d5 42 80 71 f1 3f 25 cd e5 e4 56 46 e8 bf
       1.090210209911912 -0.7585863562257243
000710 0a 58 2f 06 e3 93 f1 bf 3e b3 a0 ef b6 0e c3 bf
       -1.0986051789855105 -0.1488865537698078
000720 10 fa 70 3f 9c c4 b4 bf c4 25 48 67 7c c0 cf bf
       -0.08112503575191732 -0.24806170504625247
000730 f8 bc 27 5e 67 3c db bf 4f 4f ae 61 9c d5 0a 40
       -0.42556175417753606 3.3543021804161195
000740 a0 bd 97 35 ed 91 d3 bf 54 50 cd 65 ca 30 ec 3f
       -0.30578165277162306 0.8809558857269715
000750 c8 47 e0 03 0f 76 f4 bf f0 aa 8b 7d dd f5 f2 3f
       -1.2788229133043263 1.185025682842646
000760 8c 83 05 14 47 c4 c0 3f 80 80 3b 84 e1 d5 82 3f
       0.1309899184953135 0.00919700798789358
000770 07 49 34 54 6f fc ea bf 9a 13 5e 0a b3 7d f7 bf
       -0.8433148045171784 -1.468188324449534
000780 c8 64 23 ac 4a 61 f4 bf b4 a4 8a 25 93 e1 f5 3f
       -1.2737528537893912 1.3675719706027794
000790 15 0d f9 2d 21 57 e8 bf 76 95 6f f7 39 16 fb 3f
       -0.7606359384448377 1.6929263749564973
0007a0 f5 25 3d 2c 0c 82 f1 bf 80 2c fd 01 0e 27 bf 3f
       -1.0942498901443944 0.12168967770155525
0007b0 ec 4c 7a f0 c9 cc c0 3f 4c 42 d7 ef 70 77 ec 3f
       0.13124965898587193 0.8895802196876246
0007c0 80 30 02 28 38 c0 ef bf 04 90 09 18 35 99 d4 3f
       -0.9922142774025957 0.32185103747747257
0007d0 d8 7c d6 a6 2f 1c c0 bf df a4 18 f3 ff 1c ec 3f
       -0.12586017271403338 0.878540015027422
0007e0 cd 03 c7 93 b3 1b f1 bf dc ed 51 21 fb e7 df 3f
       -1.0692630550913578 0.4985339951888059
0007f0 70 41 23 53 e2 15 b8 3f d2 58 14 04 54 ee da 3f
       0.09408392457703996 0.4207963981474566
