assignment1/results/w2_LR_2.00.npy (npy, 1008 bytes, 1 tensors)

array f8 [11, 10]
000000 ba 2b df d9 87 d7 00 40 68 f3 fe b0 c0 07 f0 3f
       2.1052395840865445 1.001892749204865
000010 08 6a 58 40 6a d1 09 c0 36 b3 32 fc 83 ca 14 c0
       -3.2272534396154278 -5.197769108385549
000020 08 8c f4 bb 5f a1 03 c0 94 0b 64 96 79 92 00 40
       -2.453795879745943 2.071520972183359
000030 ca b2 66 01 fe 71 05 40 aa e2 b7 ec e9 61 12 c0
       2.6806602582422316 -4.595618914340472
000040 2b 09 1e 99 ce 03 13 40 58 e7 38 cc ce 0c 02 40
       4.753717796762696 2.2562538103929164
000050 e0 11 3b fc 3c a8 a0 3f ad b4 f7 56 0c 0d 19 c0
       0.03253355578411621 -6.262742384785423
000060 e5 0f 51 c8 0c df f0 3f c6 eb c7 33 de 54 f5 3f
       1.0544555497044652 1.3332197210972807
000070 1a 7c ac 54 de aa 0f c0 60 b7 5d b8 29 41 e6 3f
       -3.958431874765222 0.6954544640445697
000080 d8 10 76 1d ce 5f df bf 42 e8 1e a0 39 70 0e 40
       -0.49022248150892045 3.8047974118644854
000090 36 d0 2a a4 3a 3e 07 40 7f bf 60 10 d6 e5 13 c0
       2.9053852868619527 -4.9744494017648995
0000a0 a8 10 a9 df f9 50 14 c0 b4 f1 57 ee 43 39 f1 3f
       -5.079078192418969 1.076480799703046
0000b0 21 93 c1 6d c4 ee 13 c0 7a 67 da 22 16 2f 08 40
       -4.983171191158164 3.022991440096061
0000c0 ec ac 78 de fd 75 00 40 c0 40 ab 37 ad cb 0d 40
       2.0576131229951127 3.7244514798295256
0000d0 2c 1e 0e 9d e7 b4 1b c0 b4 91 b5 8c 50 97 e6 3f
       -6.926664785372434 0.7059710262515666
0000e0 d4 1a 14 5d 23 63 02 40 59 ca e3 d0 23 f4 f3 3f
       2.2984072944412706 1.2471044692762432
0000f0 1a 7e 7e 45 89 4b 1c c0 04 14 7c 77 d2 73 d1 3f
       -7.0737658365683505 0.2726942221491415
000100 56 ca 69 6e 90 72 08 40 6a e3 ca a0 dc 44 ed bf
       3.055939543345896 -0.9146559849242355
000110 2a 92 97 bc 4c 29 e5 bf 36 c9 a3 ef 4a 48 f2 bf
       -0.6612914737166353 -1.142649589627195
000120 ff e2 93 1d 64 d0 16 40 a3 16 67 0b 35 e4 fd bf
       5.703506910468376 -1.8682146497170968
000130 c6 ad 2a 29 ab d4 e9 bf ff 4e 35 64 72 22 f4 bf
       -0.807210522083033 -1.258409873426842
000140 52 e7 37 64 63 51 fa 3f 83 9c c2 73 a2 01 16 c0
       1.6448701777248584 -5.501596268418441
000150 d1 ba d6 5f 33 82 0b c0 e6 12 b2 01 ec 76 03 c0
       -3.4385745513348884 -2.4330673344105547
000160 91 68 99 96 19 45 06 40 08 8f 23 38 a5 d4 ff 3f
       2.7837402120176837 1.9894153778959112
000170 73 58 54 5b 71 30 02 40 96 8b 1f 6e 7f 25 03 40
       2.2736537108531194 2.3933094600083207
000180 a2 cb 90 62 00 5d 19 c0 81 32 85 b5 8e 77 0d 40
       -6.340821781242001 3.6833776646874985
000190 70 2d 64 26 d8 9c c7 bf 74 6e 3e f1 03 f8 e4 3f
       -0.18447400927139368 0.6552753173632042
0001a0 d5 43 df e4 f6 90 15 40 87 18 b0 7d 58 e9 13 c0
       5.3915668259878275 -4.977876628754649
0001b0 e8 93 53 26 ad 00 02 40 89 e4 28 95 10 4d 10 c0
       2.250330256867972 -4.075258570309537
0001c0 79 7c 6d 9c 42 df 10 c0 80 49 68 78 92 17 b3 3f
       -4.218027538473614 0.07457843246110052
0001d0 a0 41 14 5d 03 6c 9c bf ac 04 09 8e f1 be f6 bf
       -0.027755787426089307 -1.421617083382709
0001e0 08 34 93 6c a3 6d d1 3f c6 c4 62 75 05 ee e2 bf
       0.2723167953780039 -0.59155533720891
0001f0 68 8c df fc ff 5b f2 3f 64 0d c4 0b 2a 60 e3 3f
       1.147460925851897 0.6054887990762094
000200 c6 4a 0b 00 3b 98 15 40 34 94 ef c1 b6 c9 ca bf
       5.398662567795958 -0.2092808196022432
000210 26 ed bf b8 df 10 0a c0 f2 f6 b8 bf 4f d7 19 c0
       -3.2582392152377393 -6.460265155472131
000220 74 c5 1b a1 b7 8b 00 c0 e8 46 2c 43 9c 23 18 c0
       -2.068221338901532 -6.034775781228497
000230 e3 ad 8c e9 06 b3 02 40 80 80 2e 04 d6 9f 80 3f
       2.337415527921381 0.008117362978566911
000240 60 76 53 af 02 d9 e7 bf 80 d1 2d 14 41 c3 05 c0
       -0.7452405380569864 -2.7203389717562345
000250 65 42 40 d9 5b 7c f5 3f e7 55 9c 43 fd 86 07 c0
       1.3428610311858844 -2.940912750442965
000260 0a 97 a0 a6 a6 19 09 c0 4b db d0 4f e2 7c da bf
       -3.13752489259321 -0.4138723163081763
000270 34 4f 6e 9d ba 73 00 40 f8 b5 69 43 7a e4 f5 bf
       2.0565082835472825 -1.3682806618993464
000280 4c 65 39 6a b7 f9 d4 3f 00 fa 31 64 b8 be 11 40
       0.3277414834352228 4.436250272322013
000290 b4 17 21 c6 0e 29 c5 3f a0 bc 16 e8 f8 c1 f0 3f
       0.16531548189430867 1.0473565164536822
0002a0 d5 67 66 0d 80 8c f5 bf 78 0a bb 03 6f ec cc bf
       -1.3468018077314714 -0.2259653824058494
0002b0 90 d0 78 1d 5d 2e e4 3f c6 92 1d 17 7c 97 e2 bf
       0.6306596351264648 -0.5809917880511299
0002c0 a2 e7 04 70 da bf 12 c0 40 f0 3e f0 ec 58 07 c0
       -4.687356710719458 -2.9184206742484378
0002d0 68 70 0b 2e 40 c3 00 c0 ec 92 ca ce 90 62 c1 bf
       -2.0953372571221287 -0.1358204850886503
0002e0 14 42 66 27 3c 8b c7 bf d6 85 6e eb bb 33 f4 bf
       -0.18393661426354468 -1.2626303860237065
0002f0 1e d2 a3 8f b5 55 03 40 40 15 63 4a ec 12 dc 3f
       2.4168502065533763 0.4386549688755004
000300 42 b9 da 84 81 ad d5 bf fc 04 31 9c e2 34 d7 3f
       -0.338714961758246 0.3626028561885304
000310 a4 f0 90 90 5e e7 01 c0 23 ad a0 cd 51 e6 e8 bf
       -2.2379733366233996 -0.7781151786961441
000320 b7 f6 3a d9 48 d6 f9 bf fa d1 d4 92 71 73 0d c0
       -1.6148155675468112 -3.6813689681241586
000330 56 92 e0 59 12 60 14 c0 32 c3 b4 da 8f c6 e2 bf
       -5.0938200038259165 -0.5867385169604857
000340 64 19 fe 96 1f 73 1e c0 b4 5a 5c 30 41 74 16 c0
       -7.6124251930799325 -5.613529925953731
000350 3a 6a ca c3 48 63 0a c0 fa 04 5b a0 3b 49 fa bf
       -3.298478631605829 -1.642879129780623
000360 40 81 88 06 e0 9b 13 c0 e8 03 b7 04 c7 93 f5 bf
       -4.902221777040097 -1.3485784706283486
