assignment1/results/w2_LR_5.00.npy (npy, 1008 bytes, 1 tensors)

array f8 [11, 10]
0.423653786653567 3.4112264742608067 -3.729718101513999 -8.282037920972835 3.365686687991215 -5.138800818395351 -5.254722720220675 6.682277005468149
-6.7354928764195385 8.397853378370533 -7.646426321720327 -6.9381279890089536 7.953832268232877 3.5908062360123862 2.247053593947172 2.7802113705757607
-3.801337931501422 6.620050320084405 -5.070139075098972 7.3328541281718005 0.6651209210118765 -2.278294577520217 -3.8959158224310766 -2.4684124066622273
-4.885818833723151 -0.32666577104559247 -3.368278769027655 -3.167756270645677 1.9088954665501578 -6.154049461658275 -9.447393738615682 5.715219845333346
0.10088254061639157 -2.5607396925433967 4.416905972249313 2.7048145549079567 8.166772711004697 -1.0941963074283416 -1.4501876059226342 -2.837651503477166
1.7838330247773164 -0.5451170306991662 11.014007204539325 -3.8891874206625223 -2.8266662157119598 -4.7600545166324615 2.4307935621596246 -7.068552331883766
-4.770315179414814 -3.047136246082487 -3.1424917718089844 -4.373312763117802 -2.0054456544400256 -6.179757608289304 8.796266189245666 -10.165044570711384
-6.059790338870119 -3.332412391791192 8.451559743540892 -0.417730984002316 -3.5264278623514844 2.960186196587614 -5.081048766255663 3.801711502046633
1.0490633463560812 5.167189423807254 -5.488184550602608 -7.616720649319485 -2.00966948350298 8.039625456616243 0.8203115274709744 -1.4596258316800927
-3.3304407550248403 0.34404337843171107 -4.043693341390437 -4.268253450123383 -1.761580662978675 -1.7094925936437657 -2.80107599769096 -4.792589950952759
-4.376045511755321 -0.6158329211388124 2.355694369144163 -0.8377516870378003 -3.3917797028411996 -2.7220377046593276 -1.273711186497716 -0.9613711710807289
2.857468493635601 -4.108923424203875 6.413244126648273 -5.155292974967681 -7.458681867476269 -6.560557551928486 6.274335487811387 8.371604062664886
4.732280656398889 -1.4097779896133544 -5.812962735678391 -2.517839555345604 0.0004979613333362387 -2.5117767485984994 -2.3912751729558304 -0.6823914237594599
-6.428781718216507 -4.847152163126222 -4.641208408354808 -3.3050427827108564 -0.6525655988431904 -4.7251538001773
00000000: 803b a0c5 241d db3f ae98 111b 314a 0b40
00000010: 286a aa71 76d6 0dc0 cd9e 3d46 6790 20c0
00000020: e109 6c24 edec 0a40 0eaa 3ecd 218e 14c0
00000030: 7695 6308 d604 15c0 ad31 c5d2 a6ba 1a40
00000040: cca6 6a0b 25f1 1ac0 bb68 2170 b3cb 2040
00000050: e03f 1cc8 f095 1ec0 d705 a19f a4c0 1bc0
00000060: 05b8 f767 b9d0 1f40 8691 af9e f8b9 0c40
00000070: 21e6 123c f7f9 0140 cab8 8475 df3d 0640
00000080: 40be 86dc 2369 0ec0 238c 9a78 ee7a 1a40
00000090: 18e3 a689 d247 14c0 8d58 6bb6 d754 1d40
000000a0: 8034 74ab ab48 e53f e7d3 e881 f239 02c0
000000b0: bc7b 2aea d52a 0fc0 463d fd00 4fbf 03c0
000000c0: 5216 a417 148b 13c0 a842 d78c 17e8 d4bf
000000d0: 8247 a623 3cf2 0ac0 14fa 8099 9057 09c0
000000e0: a80c 05f9 d58a fe3f a027 5f24 bf9d 18c0
000000f0: 3d94 c7ca 10e5 22c0 aaa0 5497 62dc 1640
00000100: a04e af2c 70d3 b93f 0858 8817 657c 04c0
00000110: 8345 3166 e9aa 1140 8498 38d0 75a3 0540
00000120: c842 973b 6355 2040 64f0 bcfc d381 f1bf
00000130: 3709 48eb f733 f7bf 8a09 a7a1 82b3 06c0
00000140: e317 6f7f 948a fc3f b80e 6b45 9971 e1bf
00000150: 40cf caf3 2b07 2640 be14 5e4b 0e1d 0fc0
00000160: 1087 492d 039d 06c0 3c74 30bb 4b0a 13c0
00000170: 676c 26e5 4372 0340 7105 1e95 3246 1cc0
00000180: c6cb 9c80 cd14 13c0 3e0b dbf7 8860 08c0
00000190: 10f3 deb9 d223 09c0 d814 73b3 457e 11c0
000001a0: 44cd 5d17 270b 00c0 2c3d e360 12b8 18c0
000001b0: fd70 b333 b097 2140 ee2c d3b8 8054 24c0
000001c0: 7441 b8ad 393d 18c0 fa39 fcd3 c7a8 0ac0
000001d0: 8565 b5d6 32e7 2040 d436 b4bc 1abc dabf
000001e0: c405 a4cf 1f36 0cc0 c050 c319 76ae 0740
000001f0: 01cc a172 fe52 14c0 49f0 50b8 e769 0e40
00000200: cd81 c0a5 f6c8 f03f fbf4 4db4 33ab 1440
00000210: ad00 9da6 e6f3 15c0 5b61 2e9e 8577 1ec0
00000220: eb50 1b98 cd13 00c0 fc82 b0c9 4914 2040
00000230: e5a0 e0f5 fd3f ea3f a067 b79d a05a f7bf
00000240: 24c7 601f bea4 0ac0 5240 b184 ce04 d63f
00000250: b04c 81f2 bd2c 10c0 c146 4d08 b112 11c0
00000260: 8826 8c34 6f2f fcbf 5e44 e7e7 145a fbbf
00000270: c48b 5d88 9a68 06c0 dfeb 39b3 9c2b 13c0
00000280: cf2f 1b13 1281 11c0 4fec 023e e7b4 e3bf
00000290: a6c3 164a 76d8 0240 b4e0 3fa0 dcce eabf
000002a0: 3384 9765 5d22 0bc0 feec 3fb4 bbc6 05c0
000002b0: aae9 28fb 1e61 f4bf 887c 6379 8dc3 eebf
000002c0: 511f 0c71 18dc 0640 5ae5 429f 896f 10c0
000002d0: a8df e477 29a7 1940 9223 231f 059f 14c0
000002e0: ac50 10b3 b0d5 1dc0 143c 84cc 023e 1ac0
000002f0: e220 f166 eb18 1940 b069 40e3 42be 2040
00000300: 15e8 fafa daed 1240 e628 805d 738e f6bf
00000310: e96b aa4d 7940 17c0 c346 9610 8924 04c0
00000320: 00d0 17d2 3351 403f 8fab 7068 1e18 04c0
00000330: 02a8 bce0 5421 03c0 acc4 038a 26d6 e5bf
00000340: 4973 038e 12b7 19c0 7d73 4ddb 7b63 13c0
00000350: 6a37 dfef 9890 12c0 e0fd 3c45 ba70 0ac0
00000360: 4ad6 3040 d1e1 e4bf 9553 c1b7 8ee6 12c0
