assignment1/results/w2_LR_10.00.npy (npy, 1008 bytes, 1 tensors)

array f8 [11, 10]
-4.7422935600744545 -0.9304148350967991 -2.971472088825605 -6.3716812554764655 -1.6068485044245706 -3.670151111113479 -5.201957153177442 -2.116585748671169
-5.104008119957598 -1.5831209544224116 4.355040532005709 5.371605417332774 1.8364390696395054 -1.592034395094717 -3.3299107231004594 -9.026880301158211
7.377658705539785 -4.443322076091233 -4.9920037316475865 -6.096137345514366 0.9401747831036753 0.5954786920822963 -6.453322743041604 1.959890373593775
-2.826303310024845 6.25032326561477 2.241183456225621 -2.1043628550706033 -4.744554986438315 1.5472148621794952 3.485734644721314 -8.891176468585241
3.3067294032245167 3.295182446515449 -0.8329332564842968 1.8489346858738562 5.706343862123966 -6.198261194306192 5.290556330457036 -6.9844866652485305
4.792669932592263 0.5080721117632012 3.3540510902690706 -3.204632066941921 -6.076230196754296 -4.247288187020431 -4.556537552715538 3.803868931001129
3.712950798050988 2.4417876313098406 -4.463187967277331 -1.9342269308512845 3.2222129710408076 2.2961100951886864 -6.172827346570816 5.137597483738816
-2.0680717672378766 -3.623326171317478 0.42668659192667935 -4.399589106138711 5.010233365221748 -4.601504452021432 -9.724443321080448 3.9057383740044065
2.166807719015543 -3.2750104459297944 -4.01822728523441 0.532472406030905 7.710531967885139 3.839414723695101 -1.267035267570003 -2.0991229407846053
1.1526874605339854 -2.2351942444849353 6.888457835920634 -2.045573340500665 -3.8359977937071044 3.1731679012639438 -3.396725409241701 -4.196830862230981
-2.0870792496429864 -3.5819108100866077 4.963374572948506 8.137642130301323 -4.367993153448162 -7.117991643032667 -4.697994639497716 8.207543125706957
-4.40281796675828 -8.645023924138021 -6.824954430735399 0.5709334645187976 0.10590158316124976 1.8241368758343937 2.303434616574051 -2.347980195787018
4.052678103347693 -1.5153925748497095 1.240694774906396 0.7513076317465128 -4.4586123030774765 -1.425571894965018 -2.870643174852664 -9.54362605069582
-2.555034879723773 -1.2183462656409025 -8.49668144296518 -3.5295015432341716 -6.744035691930849 -1.9833473229651855
00000000: 6c34 92cd 1bf8 12c0 0c87 0e55 f5c5 edbf
00000010: bcdc 9328 93c5 07c0 063b d302 9a7c 19c0
00000020: a714 02c7 a6b5 f9bf 36e2 8c2f 785c 0dc0
00000030: 8b5c 20db cdce 14c0 5ec7 4d82 c4ee 00c0
00000040: 00f2 c61a 816a 14c0 7db4 4da3 7654 f9bf
00000050: 37e0 c6be 8f6b 1140 c1d7 6921 867c 1540
00000060: 692c 13ef 0d62 fd3f 8c9f d00e f978 f9bf
00000070: 8c87 b23b a8a3 0ac0 26c3 3c41 c30d 22c0
00000080: 4e5f b5f6 b882 1d40 6ea0 e938 f6c5 11c0
00000090: d1be 83d3 cff7 13c0 42a2 0bd4 7162 18c0
000000a0: a288 3e6d e915 ee3f 88aa 7e54 290e e33f
000000b0: 3996 4fd6 33d0 19c0 ab49 2502 b65b ff3f
000000c0: ea10 e9e8 449c 06c0 33f9 fcbd 5400 1940
000000d0: 329a 8697 f1ed 0140 3d90 4b31 bcd5 00c0
000000e0: 1e4e 539f 6cfa 12c0 2423 0f5f 64c1 f83f
000000f0: d5e5 6cd8 c8e2 0b40 a713 3748 48c8 21c0
00000100: 3291 9c8b 2e74 0a40 d418 519d 885c 0a40
00000110: 0a3a 0ba5 63a7 eabf bc4a 8489 3c95 fd3f
00000120: 0936 2ece 4bd3 1640 a971 86fb 04cb 18c0
00000130: c0d5 4399 8729 1540 b65c ba45 1df0 1bc0
00000140: 7206 b4aa b12b 1340 1c0b 0172 2042 e03f
00000150: e88c eebc 18d5 0a40 d5d3 1923 16a3 09c0
00000160: 011c e849 0f4e 18c0 71c2 4f1d 39fd 10c0
00000170: eea2 effa e439 12c0 d65c 87d5 526e 0e40
00000180: ec49 4a8c 1fb4 0d40 4a06 22f4 c788 0340
00000190: 6b6d 4df2 4dda 11c0 8fc7 30f0 97f2 febf
000001a0: 28f0 1a98 17c7 0940 8dce 36f8 6e5e 0240
000001b0: 2481 e5a6 f9b0 18c0 30ae d25a e68c 1440
000001c0: 748a f035 698b 00c0 4c65 846e 92fc 0cc0
000001d0: d0df 7d47 d54e db3f 86d0 fae2 2d99 11c0
000001e0: 5dd2 839d 7a0a 1440 6252 77c8 f067 12c0
000001f0: 3bb1 273c ea72 23c0 2ea6 b8c2 f33e 0f40
00000200: 0d23 0f49 9f55 0140 609d 3aad 3833 0ac0
00000210: 18e8 672c aa12 10c0 fe9a 3d92 030a e13f
00000220: 1851 33b1 95d7 1e40 2269 1011 1fb7 0e40
00000230: e677 d1c5 c645 f4bf 34a0 e7f7 00cb 00c0
00000240: 4c0b 1868 6871 f23f 6c29 2285 ade1 01c0
00000250: c19d 14e4 c78d 1b40 9c28 388e 555d 00c0
00000260: 5800 7c9c 1fb0 0ec0 2e2a 45da a562 0940
00000270: 8a7b 115f 7e2c 0bc0 8f80 9007 8ec9 10c0
00000280: c803 0b9b 56b2 00c0 3716 d4da c0a7 0cc0
00000290: 7c72 32dd 7eda 1340 5464 8007 7946 2040
000002a0: d9d8 7c32 d378 11c0 401b 20cd d278 1cc0
000002b0: 39b4 551b bfca 12c0 8dd7 b217 436a 2040
000002c0: 43df 2550 7c9c 11c0 eb9e 6693 404a 21c0
000002d0: 9ccb b2da c04c 1bc0 569b c941 1645 e23f
000002e0: 60ae 45bc 5d1c bb3f 6c2e 1226 aa2f fd3f
000002f0: 5f47 d520 6f6d 0240 c37c 44d7 a9c8 02c0
00000300: e65f ac3f f135 1040 b04a d948 0c3f f8bf
00000310: 26a8 a8c3 e2d9 f33f 7ac4 724d b60a e83f
00000320: 440b ad76 9ed5 11c0 438b af79 24cf f6bf
00000330: 8ad2 d3c4 13f7 06c0 00fc 5927 5616 23c0
00000340: 566c 8420 b670 04c0 3c1a 62a7 587e f3bf
00000350: 8e21 b407 4dfe 20c0 77fa 1a4e 6b3c 0cc0
00000360: 5299 0f7e e4f9 1ac0 f8e9 0b67 cabb ffbf
