assignment1/results/w2_LR_8.00.npy (npy, 1008 bytes, 1 tensors)

array f8 [11, 10]
0	0xc0065e1a0ef89643	-2.795948140107414
1	0xc016ef58cac13438	-5.733737152139888
2	0x4021f99572974b75	8.987468319862936
3	0xc014af894cebbd39	-5.171422197235466
4	0xc00468b9ee3ae5c2	-2.551135884449395
5	0xbff18ec8ce290e72	-1.0973594716205324
6	0xc0131e288ba6c5fe	-4.779451543859521
7	0xc00bd27504f8d32e	-3.4777622593341198
8	0xbff4bd3ee81a59a2	-1.2962025705834113
9	0xbfed6d85c360cc64	-0.9196194473246462
10	0xc01b202109def6d8	-6.781376032098443
11	0x40169dd7155e2df4	5.654140790818463
12	0x3ffa4d99db5cd2c0	1.6439455574847415
13	0x4020f95d05ed4e6e	8.487037835329115
14	0xc014658933f35c5f	-5.099156200150076
15	0xc00772f7320e9432	-2.931135550565636
16	0xc0184fab217e786a	-6.0778012498322855
17	0x4006a8bd9aeadead	2.832392893116625
18	0xc00aca2c80ad60fc	-3.3487176945601487
19	0x4011c287ef250a38	4.439971672664392
20	0xbfe9ae3d069a2102	-0.8025193337389569
21	0x3ff4145a3b516576	1.2549688641650767
22	0x4011d1c88d39f48e	4.454866606390295
23	0xc00532edbc91391d	-2.6498675090616772
24	0x40024fc76b242a91	2.2889545793926307
25	0xc01733bfeff6d461	-5.800536870422634
26	0x3ff347ffb85e8550	1.2050778581545565
27	0x400f2a7e0c194f92	3.8957482285713434
28	0xc003a7dd5e14079a	-2.4569651937353685
29	0xc0193c43ea079a8b	-6.308852822031109
30	0xbff6ebf4d3af0302	-1.4326065319912122
31	0xc0143d2c859bb6e7	-5.059740150097901
32	0xc002052f6b951747	-2.252531853186983
33	0xc0000617c5bb5bfc	-2.002975029735806
34	0xc01bf5ac744fce5b	-6.989915673609711
35	0xbffeb40e90b73100	-1.9189592030480185
36	0xc004812ee02721a4	-2.563077689356037
37	0xbfffb8022d6e7fc1	-1.9824239515946689
38	0xbff8dce344e4d3b6	-1.5539276782194356
39	0xc00bdf48bef51755	-3.484025470594967
40	0xc000df87af3b57f4	-2.1091455163941593
41	0xc00cc2cadbc888c0	-3.5951134844372916
42	0xc01179d7099a4096	-4.368984365501225
43	0xc0140c8b804560f4	-5.012250904306928
44	0x4010d6c15ca9f122	4.209721992371017
45	0xc0088d286387a610	-3.068924691750688
46	0xc011e0049851311a	-4.468767528491549
47	0x4018a3f2e56c4996	6.1601062629073535
48	0xc01f7ffa206700a2	-7.874977594649097
49	0x401884fd85663598	6.129873356212009
50	0x40120844e0ac46d0	4.5080752473019885
51	0xc01395114f8cba58	-4.895573847736692
52	0xbff99cb01bbe6409	-1.6007538875330758
53	0x4009a710bfd31eab	3.206574915533414
54	0x3fed5cd2e1f699aa	0.9175810254426342
55	0xc014a772674de1b8	-5.163522352341197
56	0xc00faa6253ae3d42	-3.958195356135236
57	0xc00068191569a189	-2.0508290932522795
58	0xbff2f78a58b2a848	-1.185434671856017
59	0xbffdfc42936f6f2a	-1.8740869292441382
60	0x3ffc20700a890c37	1.7579193507706472
61	0xbfffdd6a95815aa6	-1.9915567245531434
62	0xc006e0c7dbf50670	-2.8597562011862507
63	0xbff8c7c0f6019d8a	-1.5487680062886704
64	0x3f97429fa30c9c40	0.022715086294877063
65	0x4019a53ed94fc5c7	6.411372561925822
66	0xc00c06c7268132ae	-3.503309536760148
67	0xbfd1c0049d639748	-0.27734485025427036
68	0xc01526c6ae316d8e	-5.287867280737727
69	0x3fb44518e937e538	0.07917934125716364
70	0x3fe1a73dbadf09f4	0.5516651773289696
71	0x4008740f7e4c359b	3.0566701762206328
72	0xc003f3681d4df3f4	-2.493850926343379
73	0xc00de40dc9b5d452	-3.736354423390858
74	0x4015c170006d8a1a	5.438903814969786
75	0xc0115ec6a9482120	-4.342554707553319
76	0xc012d0f58afdb854	-4.7040616719587725
77	0xc0143a8ed5554466	-5.057185490922256
78	0x40145dd52c0a5834	5.091633499270802
79	0x4004079fb60c54aa	2.503722593547157
80	0x4009c8da01b0ae30	3.2230720645946107
81	0x401232777dc804b1	4.5492839482623575
82	0xc00752e82df0e384	-2.915481909669724
83	0xc004285d62eb1034	-2.5197093704209923
84	0x3ffabb9b9c6e8198	1.6708026991474068
85	0xc00ed78a91e03756	-3.8552447697210637
86	0x4012dddc0978ac75	4.71665968703302
87	0xc011298121301d36	-4.2905316529861945
88	0xc0189b047236b561	-6.151384148205893
89	0xbfebaf4c9107f50b	-0.8651488144529663
90	0xc01891e660ae3796	-6.14248038352334
91	0xbff4e822bc4f2db5	-1.3066737514335334
92	0xbff6e5c14c77df40	-1.4310925471344973
93	0xc0060b4b3d8a878c	-2.755514603414616
94	0x400c5c136bf20820	3.544958918880198
95	0x40071acfa303e78c	2.888091348225265
96	0x401007edcc4d7390	4.007743065097102
97	0xbff26a0eb277d946	-1.1508929225361313
98	0x40076775191f4684	2.9255163157147894
99	0xbffddf7a9df20207	-1.8670602960338571
100	0xbffa6c95d0e091b8	-1.6515100631014388
101	0xc00fe4bd91537908	-3.9866896966551657
102	0xbffd63bd2c6d0ff4	-1.8368503318206395
103	0xc008008e8275380a	-3.000271815492856
104	0xc017a20966154048	-5.908238978430809
105	0xbfb83f5900f66f00	-0.09471660874845256
106	0xc007b4b0651930e2	-2.9632270716011684
107	0xc01350b3c50c8a94	-4.828810767069303
108	0xbfe3f235d320f788	-0.6233166812523772
109	0xc00a41b90b1b46f3	-3.2820912234973263
